…
I0810 11:30:03.815708 30323 net.cpp:51] Initializing net from parameters: 
name: "MOBILENET"
state {
  phase: TRAIN
}
layer {
  name: "data_train"
  type: "ImageData"
  top: "data"
  top: "label"
  include {
    phase: TRAIN
  }
  transform_param {
    scale: 0.00390625
    mirror: true
    crop_size: 224
    mean_value: 112.24
    mean_value: 115.46
    mean_value: 117.84
  }
  image_data_param {
    source: "/home/liuyp/liu/keras_mobilenet/data3/train_txt.txt"
    batch_size: 64
    shuffle: true
    new_height: 224
    new_width: 224
    root_folder: "/home/liuyp/liu/keras_mobilenet/data3/train/"
  }
}
layer {
  name: "conv1"
  type: "Convolution"
  bottom: "data"
  top: "conv1"
  param {
    lr_mult: 1
    decay_mult: 1
  }
  convolution_param {
    num_output: 32
    bias_term: false
    pad: 1
    kernel_size: 3
    stride: 2
    weight_filler {
      type: "msra"
    }
  }
}
layer {
  name: "conv1/bn"
  type: "BatchNorm"
  bottom: "conv1"
  top: "conv1"
  param {
    lr_mult: 0
    decay_mult: 0
  }
  param {
    lr_mult: 0
    decay_mult: 0
  }
  param {
    lr_mult: 0
    decay_mult: 0
  }
}
layer {
  name: "conv1/scale"
  type: "Scale"
  bottom: "conv1"
  top: "conv1"
  param {
    lr_mult: 0
    decay_mult: 0
  }
  param {
    lr_mult: 0
    decay_mult: 0
  }
  scale_param {
    filler {
      value: 0
    }
    bias_term: true
    bias_filler {
      value: 0
    }
  }
}
layer {
  name: "relu1"
  type: "ReLU"
  bottom: "conv1"
  top: "conv1"
}
layer {
  name: "conv2_1/dw"
  type: "Convolution"
  bottom: "conv1"
  top: "conv2_1/dw"
  param {
    lr_mult: 1
    decay_mult: 1
  }
  convolution_param {
    num_output: 32
    bias_term: false
    pad: 1
    kernel_size: 3
    group: 32
    stride: 1
    weight_filler {
      type: "msra"
    }
    engine: CAFFE
  }
}
layer {
  name: "conv2_1/dw/bn"
  type: "BatchNorm"
  bottom: "conv2_1/dw"
  top: "conv2_1/dw"
  param {
    lr_mult: 0
    decay_mult: 0
  }
  param {
    lr_mult: 0
    decay_mult: 0
  }
  param {
    lr_mult: 0
    decay_mult: 0
  }
}
layer {
  name: "conv2_1/dw/scale"
  type: "Scale"
  bottom: "conv2_1/dw"
  top: "conv2_1/dw"
  param {
    lr_mult: 1
    decay_mult: 0
  }
  param {
    lr_mult: 1
    decay_mult: 0
  }
  scale_param {
    filler {
      value: 1
    }
    bias_term: true
    bias_filler {
      value: 0
    }
  }
}
layer {
  name: "relu2_1/dw"
  type: "ReLU"
  bottom: "conv2_1/dw"
  top: "conv2_1/dw"
}
layer {
  name: "conv2_1/sep"
  type: "Convolution"
  bottom: "conv2_1/dw"
  top: "conv2_1/sep"
  param {
    lr_mult: 1
    decay_mult: 1
  }
  convolution_param {
    num_output: 64
    bias_term: false
    pad: 0
    kernel_size: 1
    stride: 1
    weight_filler {
      type: "msra"
    }
  }
}
layer {
  name: "conv2_1/sep/bn"
  type: "BatchNorm"
  bottom: "conv2_1/sep"
  top: "conv2_1/sep"
  param {
    lr_mult: 0
    decay_mult: 0
  }
  param {
    lr_mult: 0
    decay_mult: 0
  }
  param {
    lr_mult: 0
    decay_mult: 0
  }
}
layer {
  name: "conv2_1/sep/scale"
  type: "Scale"
  bottom: "conv2_1/sep"
  top: "conv2_1/sep"
  param {
    lr_mult: 0
    decay_mult: 0
  }
  param {
    lr_mult: 0
    decay_mult: 0
  }
  scale_param {
    filler {
      value: 0
    }
    bias_term: true
    bias_filler {
      value: 0
    }
  }
}
layer {
  name: "relu2_1/sep"
  type: "ReLU"
  bottom: "conv2_1/sep"
  top: "conv2_1/sep"
}
layer {
  name: "conv2_2/dw"
  type: "Convolution"
  bottom: "conv2_1/sep"
  top: "conv2_2/dw"
  param {
    lr_mult: 1
    decay_mult: 1
  }
  convolution_param {
    num_output: 64
    bias_term: false
    pad: 1
    kernel_size: 3
    group: 64
    stride: 2
    weight_filler {
      type: "msra"
    }
    engine: CAFFE
  }
}
layer {
  name: "conv2_2/dw/bn"
  type: "BatchNorm"
  bottom: "conv2_2/dw"
  top: "conv2_2/dw"
  param {
    lr_mult: 0
    decay_mult: 0
  }
  param {
    lr_mult: 0
    decay_mult: 0
  }
  param {
    lr_mult: 0
    decay_mult: 0
  }
}
layer {
  name: "conv2_2/dw/scale"
  type: "Scale"
  bottom: "conv2_2/dw"
  top: "conv2_2/dw"
  param {
    lr_mult: 0
    decay_mult: 0
  }
  param {
    lr_mult: 0
    decay_mult: 0
  }
  scale_param {
    filler {
      value: 0
    }
    bias_term: true
    bias_filler {
      value: 0
    }
  }
}
layer {
  name: "relu2_2/dw"
  type: "ReLU"
  bottom: "conv2_2/dw"
  top: "conv2_2/dw"
}
layer {
  name: "conv2_2/sep"
  type: "Convolution"
  bottom: "conv2_2/dw"
  top: "conv2_2/sep"
  param {
    lr_mult: 1
    decay_mult: 1
  }
  convolution_param {
    num_output: 128
    bias_term: false
    pad: 0
    kernel_size: 1
    stride: 1
    weight_filler {
      type: "msra"
    }
  }
}
layer {
  name: "conv2_2/sep/bn"
  type: "BatchNorm"
  bottom: "conv2_2/sep"
  top: "conv2_2/sep"
  param {
    lr_mult: 0
    decay_mult: 0
  }
  param {
    lr_mult: 0
    decay_mult: 0
  }
  param {
    lr_mult: 0
    decay_mult: 0
  }
}
layer {
  name: "conv2_2/sep/scale"
  type: "Scale"
  bottom: "conv2_2/sep"
  top: "conv2_2/sep"
  param {
    lr_mult: 1
    decay_mult: 0
  }
  param {
    lr_mult: 1
    decay_mult: 0
  }
  scale_param {
    filler {
      value: 1
    }
    bias_term: true
    bias_filler {
      value: 0
    }
  }
}
layer {
  name: "relu2_2/sep"
  type: "ReLU"
  bottom: "conv2_2/sep"
  top: "conv2_2/sep"
}
layer {
  name: "conv3_1/dw"
  type: "Convolution"
  bottom: "conv2_2/sep"
  top: "conv3_1/dw"
  param {
    lr_mult: 1
    decay_mult: 1
  }
  convolution_param {
    num_output: 128
    bias_term: false
    pad: 1
    kernel_size: 3
    group: 128
    stride: 1
    weight_filler {
      type: "msra"
    }
    engine: CAFFE
  }
}
layer {
  name: "conv3_1/dw/bn"
  type: "BatchNorm"
  bottom: "conv3_1/dw"
  top: "conv3_1/dw"
  param {
    lr_mult: 0
    decay_mult: 0
  }
  param {
    lr_mult: 0
    decay_mult: 0
  }
  param {
    lr_mult: 0
    decay_mult: 0
  }
}
layer {
  name: "conv3_1/dw/scale"
  type: "Scale"
  bottom: "conv3_1/dw"
  top: "conv3_1/dw"
  param {
    lr_mult: 0
    decay_mult: 0
  }
  param {
    lr_mult: 0
    decay_mult: 0
  }
  scale_param {
    filler {
      value: 0
    }
    bias_term: true
    bias_filler {
      value: 0
    }
  }
}
layer {
  name: "relu3_1/dw"
  type: "ReLU"
  bottom: "conv3_1/dw"
  top: "conv3_1/dw"
}
layer {
  name: "conv3_1/sep"
  type: "Convolution"
  bottom: "conv3_1/dw"
  top: "conv3_1/sep"
  param {
    lr_mult: 1
    decay_mult: 1
  }
  convolution_param {
    num_output: 128
    bias_term: false
    pad: 0
    kernel_size: 1
    stride: 1
    weight_filler {
      type: "msra"
    }
  }
}
layer {
  name: "conv3_1/sep/bn"
  type: "BatchNorm"
  bottom: "conv3_1/sep"
  top: "conv3_1/sep"
  param {
    lr_mult: 0
    decay_mult: 0
  }
  param {
    lr_mult: 0
    decay_mult: 0
  }
  param {
    lr_mult: 0
    decay_mult: 0
  }
}
layer {
  name: "conv3_1/sep/scale"
  type: "Scale"
  bottom: "conv3_1/sep"
  top: "conv3_1/sep"
  param {
    lr_mult: 0
    decay_mult: 0
  }
  param {
    lr_mult: 0
    decay_mult: 0
  }
  scale_param {
    filler {
      value: 0
    }
    bias_term: true
    bias_filler {
      value: 0
    }
  }
}
layer {
  name: "relu3_1/sep"
  type: "ReLU"
  bottom: "conv3_1/sep"
  top: "conv3_1/sep"
}
layer {
  name: "conv3_2/dw"
  type: "Convolution"
  bottom: "conv3_1/sep"
  top: "conv3_2/dw"
  param {
    lr_mult: 1
    decay_mult: 1
  }
  convolution_param {
    num_output: 128
    bias_term: false
    pad: 1
    kernel_size: 3
    group: 128
    stride: 2
    weight_filler {
      type: "msra"
    }
    engine: CAFFE
  }
}
layer {
  name: "conv3_2/dw/bn"
  type: "BatchNorm"
  bottom: "conv3_2/dw"
  top: "conv3_2/dw"
  param {
    lr_mult: 0
    decay_mult: 0
  }
  param {
    lr_mult: 0
    decay_mult: 0
  }
  param {
    lr_mult: 0
    decay_mult: 0
  }
}
layer {
  name: "conv3_2/dw/scale"
  type: "Scale"
  bottom: "conv3_2/dw"
  top: "conv3_2/dw"
  param {
    lr_mult: 0
    decay_mult: 0
  }
  param {
    lr_mult: 0
    decay_mult: 0
  }
  scale_param {
    filler {
      value: 0
    }
    bias_term: true
    bias_filler {
      value: 0
    }
  }
}
layer {
  name: "relu3_2/dw"
  type: "ReLU"
  bottom: "conv3_2/dw"
  top: "conv3_2/dw"
}
layer {
  name: "conv3_2/sep"
  type: "Convolution"
  bottom: "conv3_2/dw"
  top: "conv3_2/sep"
  param {
    lr_mult: 1
    decay_mult: 1
  }
  convolution_param {
    num_output: 256
    bias_term: false
    pad: 0
    kernel_size: 1
    stride: 1
    weight_filler {
      type: "msra"
    }
  }
}
layer {
  name: "conv3_2/sep/bn"
  type: "BatchNorm"
  bottom: "conv3_2/sep"
  top: "conv3_2/sep"
  param {
    lr_mult: 0
    decay_mult: 0
  }
  param {
    lr_mult: 0
    decay_mult: 0
  }
  param {
    lr_mult: 0
    decay_mult: 0
  }
}
layer {
  name: "conv3_2/sep/scale"
  type: "Scale"
  bottom: "conv3_2/sep"
  top: "conv3_2/sep"
  param {
    lr_mult: 0
    decay_mult: 0
  }
  param {
    lr_mult: 0
    decay_mult: 0
  }
  scale_param {
    filler {
      value: 0
    }
    bias_term: true
    bias_filler {
      value: 0
    }
  }
}
layer {
  name: "relu3_2/sep"
  type: "ReLU"
  bottom: "conv3_2/sep"
  top: "conv3_2/sep"
}
layer {
  name: "conv4_1/dw"
  type: "Convolution"
  bottom: "conv3_2/sep"
  top: "conv4_1/dw"
  param {
    lr_mult: 1
    decay_mult: 1
  }
  convolution_param {
    num_output: 256
    bias_term: false
    pad: 1
    kernel_size: 3
    group: 256
    stride: 1
    weight_filler {
      type: "msra"
    }
    engine: CAFFE
  }
}
layer {
  name: "conv4_1/dw/bn"
  type: "BatchNorm"
  bottom: "conv4_1/dw"
  top: "conv4_1/dw"
  param {
    lr_mult: 0
    decay_mult: 0
  }
  param {
    lr_mult: 0
    decay_mult: 0
  }
  param {
    lr_mult: 0
    decay_mult: 0
  }
}
layer {
  name: "conv4_1/dw/scale"
  type: "Scale"
  bottom: "conv4_1/dw"
  top: "conv4_1/dw"
  param {
    lr_mult: 0
    decay_mult: 0
  }
  param {
    lr_mult: 0
    decay_mult: 0
  }
  scale_param {
    filler {
      value: 0
    }
    bias_term: true
    bias_filler {
      value: 0
    }
  }
}
layer {
  name: "relu4_1/dw"
  type: "ReLU"
  bottom: "conv4_1/dw"
  top: "conv4_1/dw"
}
layer {
  name: "conv4_1/sep"
  type: "Convolution"
  bottom: "conv4_1/dw"
  top: "conv4_1/sep"
  param {
    lr_mult: 1
    decay_mult: 1
  }
  convolution_param {
    num_output: 256
    bias_term: false
    pad: 0
    kernel_size: 1
    stride: 1
    weight_filler {
      type: "msra"
    }
  }
}
layer {
  name: "conv4_1/sep/bn"
  type: "BatchNorm"
  bottom: "conv4_1/sep"
  top: "conv4_1/sep"
  param {
    lr_mult: 0
    decay_mult: 0
  }
  param {
    lr_mult: 0
    decay_mult: 0
  }
  param {
    lr_mult: 0
    decay_mult: 0
  }
}
layer {
  name: "conv4_1/sep/scale"
  type: "Scale"
  bottom: "conv4_1/sep"
  top: "conv4_1/sep"
  param {
    lr_mult: 0
    decay_mult: 0
  }
  param {
    lr_mult: 0
    decay_mult: 0
  }
  scale_param {
    filler {
      value: 0
    }
    bias_term: true
    bias_filler {
      value: 0
    }
  }
}
layer {
  name: "relu4_1/sep"
  type: "ReLU"
  bottom: "conv4_1/sep"
  top: "conv4_1/sep"
}
layer {
  name: "conv4_2/dw"
  type: "Convolution"
  bottom: "conv4_1/sep"
  top: "conv4_2/dw"
  param {
    lr_mult: 1
    decay_mult: 1
  }
  convolution_param {
    num_output: 256
    bias_term: false
    pad: 1
    kernel_size: 3
    group: 256
    stride: 2
    weight_filler {
      type: "msra"
    }
    engine: CAFFE
  }
}
layer {
  name: "conv4_2/dw/bn"
  type: "BatchNorm"
  bottom: "conv4_2/dw"
  top: "conv4_2/dw"
  param {
    lr_mult: 0
    decay_mult: 0
  }
  param {
    lr_mult: 0
    decay_mult: 0
  }
  param {
    lr_mult: 0
    decay_mult: 0
  }
}
layer {
  name: "conv4_2/dw/scale"
  type: "Scale"
  bottom: "conv4_2/dw"
  top: "conv4_2/dw"
  param {
    lr_mult: 0
    decay_mult: 0
  }
  param {
    lr_mult: 0
    decay_mult: 0
  }
  scale_param {
    filler {
      value: 0
    }
    bias_term: true
    bias_filler {
      value: 0
    }
  }
}
layer {
  name: "relu4_2/dw"
  type: "ReLU"
  bottom: "conv4_2/dw"
  top: "conv4_2/dw"
}
layer {
  name: "conv4_2/sep"
  type: "Convolution"
  bottom: "conv4_2/dw"
  top: "conv4_2/sep"
  param {
    lr_mult: 1
    decay_mult: 1
  }
  convolution_param {
    num_output: 512
    bias_term: false
    pad: 0
    kernel_size: 1
    stride: 1
    weight_filler {
      type: "msra"
    }
  }
}
layer {
  name: "conv4_2/sep/bn"
  type: "BatchNorm"
  bottom: "conv4_2/sep"
  top: "conv4_2/sep"
  param {
    lr_mult: 0
    decay_mult: 0
  }
  param {
    lr_mult: 0
    decay_mult: 0
  }
  param {
    lr_mult: 0
    decay_mult: 0
  }
}
layer {
  name: "conv4_2/sep/scale"
  type: "Scale"
  bottom: "conv4_2/sep"
  top: "conv4_2/sep"
  param {
    lr_mult: 0
    decay_mult: 0
  }
  param {
    lr_mult: 0
    decay_mult: 0
  }
  scale_param {
    filler {
      value: 0
    }
    bias_term: true
    bias_filler {
      value: 0
    }
  }
}
layer {
  name: "relu4_2/sep"
  type: "ReLU"
  bottom: "conv4_2/sep"
  top: "conv4_2/sep"
}
layer {
  name: "conv5_1/dw"
  type: "Convolution"
  bottom: "conv4_2/sep"
  top: "conv5_1/dw"
  param {
    lr_mult: 1
    decay_mult: 1
  }
  convolution_param {
    num_output: 512
    bias_term: false
    pad: 1
    kernel_size: 3
    group: 512
    stride: 1
    weight_filler {
      type: "msra"
    }
    engine: CAFFE
  }
}
layer {
  name: "conv5_1/dw/bn"
  type: "BatchNorm"
  bottom: "conv5_1/dw"
  top: "conv5_1/dw"
  param {
    lr_mult: 0
    decay_mult: 0
  }
  param {
    lr_mult: 0
    decay_mult: 0
  }
  param {
    lr_mult: 0
    decay_mult: 0
  }
}
layer {
  name: "conv5_1/dw/scale"
  type: "Scale"
  bottom: "conv5_1/dw"
  top: "conv5_1/dw"
  param {
    lr_mult: 0
    decay_mult: 0
  }
  param {
    lr_mult: 0
    decay_mult: 0
  }
  scale_param {
    filler {
      value: 0
    }
    bias_term: true
    bias_filler {
      value: 0
    }
  }
}
layer {
  name: "relu5_1/dw"
  type: "ReLU"
  bottom: "conv5_1/dw"
  top: "conv5_1/dw"
}
layer {
  name: "conv5_1/sep"
  type: "Convolution"
  bottom: "conv5_1/dw"
  top: "conv5_1/sep"
  param {
    lr_mult: 1
    decay_mult: 1
  }
  convolution_param {
    num_output: 512
    bias_term: false
    pad: 0
    kernel_size: 1
    stride: 1
    weight_filler {
      type: "msra"
    }
  }
}
layer {
  name: "conv5_1/sep/bn"
  type: "BatchNorm"
  bottom: "conv5_1/sep"
  top: "conv5_1/sep"
  param {
    lr_mult: 0
    decay_mult: 0
  }
  param {
    lr_mult: 0
    decay_mult: 0
  }
  param {
    lr_mult: 0
    decay_mult: 0
  }
}
layer {
  name: "conv5_1/sep/scale"
  type: "Scale"
  bottom: "conv5_1/sep"
  top: "conv5_1/sep"
  param {
    lr_mult: 0
    decay_mult: 0
  }
  param {
    lr_mult: 0
    decay_mult: 0
  }
  scale_param {
    filler {
      value: 0
    }
    bias_term: true
    bias_filler {
      value: 0
    }
  }
}
layer {
  name: "relu5_1/sep"
  type: "ReLU"
  bottom: "conv5_1/sep"
  top: "conv5_1/sep"
}
layer {
  name: "conv5_2/dw"
  type: "Convolution"
  bottom: "conv5_1/sep"
  top: "conv5_2/dw"
  param {
    lr_mult: 1
    decay_mult: 1
  }
  convolution_param {
    num_output: 512
    bias_term: false
    pad: 1
    kernel_size: 3
    group: 512
    stride: 1
    weight_filler {
      type: "msra"
    }
    engine: CAFFE
  }
}
layer {
  name: "conv5_2/dw/bn"
  type: "BatchNorm"
  bottom: "conv5_2/dw"
  top: "conv5_2/dw"
  param {
    lr_mult: 0
    decay_mult: 0
  }
  param {
    lr_mult: 0
    decay_mult: 0
  }
  param {
    lr_mult: 0
    decay_mult: 0
  }
}
layer {
  name: "conv5_2/dw/scale"
  type: "Scale"
  bottom: "conv5_2/dw"
  top: "conv5_2/dw"
  param {
    lr_mult: 0
    decay_mult: 0
  }
  param {
    lr_mult: 0
    decay_mult: 0
  }
  scale_param {
    filler {
      value: 0
    }
    bias_term: true
    bias_filler {
      value: 0
    }
  }
}
layer {
  name: "relu5_2/dw"
  type: "ReLU"
  bottom: "conv5_2/dw"
  top: "conv5_2/dw"
}
layer {
  name: "conv5_2/sep"
  type: "Convolution"
  bottom: "conv5_2/dw"
  top: "conv5_2/sep"
  param {
    lr_mult: 1
    decay_mult: 1
  }
  convolution_param {
    num_output: 512
    bias_term: false
    pad: 0
    kernel_size: 1
    stride: 1
    weight_filler {
      type: "msra"
    }
  }
}
layer {
  name: "conv5_2/sep/bn"
  type: "BatchNorm"
  bottom: "conv5_2/sep"
  top: "conv5_2/sep"
  param {
    lr_mult: 0
    decay_mult: 0
  }
  param {
    lr_mult: 0
    decay_mult: 0
  }
  param {
    lr_mult: 0
    decay_mult: 0
  }
}
layer {
  name: "conv5_2/sep/scale"
  type: "Scale"
  bottom: "conv5_2/sep"
  top: "conv5_2/sep"
  param {
    lr_mult: 0
    decay_mult: 0
  }
  param {
    lr_mult: 0
    decay_mult: 0
  }
  scale_param {
    filler {
      value: 0
    }
    bias_term: true
    bias_filler {
      value: 0
    }
  }
}
layer {
  name: "relu5_2/sep"
  type: "ReLU"
  bottom: "conv5_2/sep"
  top: "conv5_2/sep"
}
layer {
  name: "conv5_3/dw"
  type: "Convolution"
  bottom: "conv5_2/sep"
  top: "conv5_3/dw"
  param {
    lr_mult: 1
    decay_mult: 1
  }
  convolution_param {
    num_output: 512
    bias_term: false
    pad: 1
    kernel_size: 3
    group: 512
    stride: 1
    weight_filler {
      type: "msra"
    }
    engine: CAFFE
  }
}
layer {
  name: "conv5_3/dw/bn"
  type: "BatchNorm"
  bottom: "conv5_3/dw"
  top: "conv5_3/dw"
  param {
    lr_mult: 0
    decay_mult: 0
  }
  param {
    lr_mult: 0
    decay_mult: 0
  }
  param {
    lr_mult: 0
    decay_mult: 0
  }
}
layer {
  name: "conv5_3/dw/scale"
  type: "Scale"
  bottom: "conv5_3/dw"
  top: "conv5_3/dw"
  param {
    lr_mult: 0
    decay_mult: 0
  }
  param {
    lr_mult: 0
    decay_mult: 0
  }
  scale_param {
    filler {
      value: 0
    }
    bias_term: true
    bias_filler {
      value: 0
    }
  }
}
layer {
  name: "relu5_3/dw"
  type: "ReLU"
  bottom: "conv5_3/dw"
  top: "conv5_3/dw"
}
layer {
  name: "conv5_3/sep"
  type: "Convolution"
  bottom: "conv5_3/dw"
  top: "conv5_3/sep"
  param {
    lr_mult: 1
    decay_mult: 1
  }
  convolution_param {
    num_output: 512
    bias_term: false
    pad: 0
    kernel_size: 1
    stride: 1
    weight_filler {
      type: "msra"
    }
  }
}
layer {
  name: "conv5_3/sep/bn"
  type: "BatchNorm"
  bottom: "conv5_3/sep"
  top: "conv5_3/sep"
  param {
    lr_mult: 0
    decay_mult: 0
  }
  param {
    lr_mult: 0
    decay_mult: 0
  }
  param {
    lr_mult: 0
    decay_mult: 0
  }
}
layer {
  name: "conv5_3/sep/scale"
  type: "Scale"
  bottom: "conv5_3/sep"
  top: "conv5_3/sep"
  param {
    lr_mult: 0
    decay_mult: 0
  }
  param {
    lr_mult: 0
    decay_mult: 0
  }
  scale_param {
    filler {
      value: 0
    }
    bias_term: true
    bias_filler {
      value: 0
    }
  }
}
layer {
  name: "relu5_3/sep"
  type: "ReLU"
  bottom: "conv5_3/sep"
  top: "conv5_3/sep"
}
layer {
  name: "conv5_4/dw"
  type: "Convolution"
  bottom: "conv5_3/sep"
  top: "conv5_4/dw"
  param {
    lr_mult: 1
    decay_mult: 1
  }
  convolution_param {
    num_output: 512
    bias_term: false
    pad: 1
    kernel_size: 3
    group: 512
    stride: 1
    weight_filler {
      type: "msra"
    }
    engine: CAFFE
  }
}
layer {
  name: "conv5_4/dw/bn"
  type: "BatchNorm"
  bottom: "conv5_4/dw"
  top: "conv5_4/dw"
  param {
    lr_mult: 0
    decay_mult: 0
  }
  param {
    lr_mult: 0
    decay_mult: 0
  }
  param {
    lr_mult: 0
    decay_mult: 0
  }
}
layer {
  name: "conv5_4/dw/scale"
  type: "Scale"
  bottom: "conv5_4/dw"
  top: "conv5_4/dw"
  param {
    lr_mult: 0
    decay_mult: 0
  }
  param {
    lr_mult: 0
    decay_mult: 0
  }
  scale_param {
    filler {
      value: 0
    }
    bias_term: true
    bias_filler {
      value: 0
    }
  }
}
layer {
  name: "relu5_4/dw"
  type: "ReLU"
  bottom: "conv5_4/dw"
  top: "conv5_4/dw"
}
layer {
  name: "conv5_4/sep"
  type: "Convolution"
  bottom: "conv5_4/dw"
  top: "conv5_4/sep"
  param {
    lr_mult: 1
    decay_mult: 1
  }
  convolution_param {
    num_output: 512
    bias_term: false
    pad: 0
    kernel_size: 1
    stride: 1
    weight_filler {
      type: "msra"
    }
  }
}
layer {
  name: "conv5_4/sep/bn"
  type: "BatchNorm"
  bottom: "conv5_4/sep"
  top: "conv5_4/sep"
  param {
    lr_mult: 0
    decay_mult: 0
  }
  param {
    lr_mult: 0
    decay_mult: 0
  }
  param {
    lr_mult: 0
    decay_mult: 0
  }
}
layer {
  name: "conv5_4/sep/scale"
  type: "Scale"
  bottom: "conv5_4/sep"
  top: "conv5_4/sep"
  param {
    lr_mult: 0
    decay_mult: 0
  }
  param {
    lr_mult: 0
    decay_mult: 0
  }
  scale_param {
    filler {
      value: 0
    }
    bias_term: true
    bias_filler {
      value: 0
    }
  }
}
layer {
  name: "relu5_4/sep"
  type: "ReLU"
  bottom: "conv5_4/sep"
  top: "conv5_4/sep"
}
layer {
  name: "conv5_5/dw"
  type: "Convolution"
  bottom: "conv5_4/sep"
  top: "conv5_5/dw"
  param {
    lr_mult: 1
    decay_mult: 1
  }
  convolution_param {
    num_output: 512
    bias_term: false
    pad: 1
    kernel_size: 3
    group: 512
    stride: 1
    weight_filler {
      type: "msra"
    }
    engine: CAFFE
  }
}
layer {
  name: "conv5_5/dw/bn"
  type: "BatchNorm"
  bottom: "conv5_5/dw"
  top: "conv5_5/dw"
  param {
    lr_mult: 0
    decay_mult: 0
  }
  param {
    lr_mult: 0
    decay_mult: 0
  }
  param {
    lr_mult: 0
    decay_mult: 0
  }
}
layer {
  name: "conv5_5/dw/scale"
  type: "Scale"
  bottom: "conv5_5/dw"
  top: "conv5_5/dw"
  param {
    lr_mult: 0
    decay_mult: 0
  }
  param {
    lr_mult: 0
    decay_mult: 0
  }
  scale_param {
    filler {
      value: 0
    }
    bias_term: true
    bias_filler {
      value: 0
    }
  }
}
layer {
  name: "relu5_5/dw"
  type: "ReLU"
  bottom: "conv5_5/dw"
  top: "conv5_5/dw"
}
layer {
  name: "conv5_5/sep"
  type: "Convolution"
  bottom: "conv5_5/dw"
  top: "conv5_5/sep"
  param {
    lr_mult: 1
    decay_mult: 1
  }
  convolution_param {
    num_output: 512
    bias_term: false
    pad: 0
    kernel_size: 1
    stride: 1
    weight_filler {
      type: "msra"
    }
  }
}
layer {
  name: "conv5_5/sep/bn"
  type: "BatchNorm"
  bottom: "conv5_5/sep"
  top: "conv5_5/sep"
  param {
    lr_mult: 0
    decay_mult: 0
  }
  param {
    lr_mult: 0
    decay_mult: 0
  }
  param {
    lr_mult: 0
    decay_mult: 0
  }
}
layer {
  name: "conv5_5/sep/scale"
  type: "Scale"
  bottom: "conv5_5/sep"
  top: "conv5_5/sep"
  param {
    lr_mult: 0
    decay_mult: 0
  }
  param {
    lr_mult: 0
    decay_mult: 0
  }
  scale_param {
    filler {
      value: 0
    }
    bias_term: true
    bias_filler {
      value: 0
    }
  }
}
layer {
  name: "relu5_5/sep"
  type: "ReLU"
  bottom: "conv5_5/sep"
  top: "conv5_5/sep"
}
layer {
  name: "conv5_6/dw"
  type: "Convolution"
  bottom: "conv5_5/sep"
  top: "conv5_6/dw"
  param {
    lr_mult: 1
    decay_mult: 1
  }
  convolution_param {
    num_output: 512
    bias_term: false
    pad: 1
    kernel_size: 3
    group: 512
    stride: 2
    weight_filler {
      type: "msra"
    }
    engine: CAFFE
  }
}
layer {
  name: "conv5_6/dw/bn"
  type: "BatchNorm"
  bottom: "conv5_6/dw"
  top: "conv5_6/dw"
  param {
    lr_mult: 0
    decay_mult: 0
  }
  param {
    lr_mult: 0
    decay_mult: 0
  }
  param {
    lr_mult: 0
    decay_mult: 0
  }
}
layer {
  name: "conv5_6/dw/scale"
  type: "Scale"
  bottom: "conv5_6/dw"
  top: "conv5_6/dw"
  param {
    lr_mult: 0
    decay_mult: 0
  }
  param {
    lr_mult: 0
    decay_mult: 0
  }
  scale_param {
    filler {
      value: 0
    }
    bias_term: true
    bias_filler {
      value: 0
    }
  }
}
layer {
  name: "relu5_6/dw"
  type: "ReLU"
  bottom: "conv5_6/dw"
  top: "conv5_6/dw"
}
layer {
  name: "conv5_6/sep"
  type: "Convolution"
  bottom: "conv5_6/dw"
  top: "conv5_6/sep"
  param {
    lr_mult: 1
    decay_mult: 1
  }
  convolution_param {
    num_output: 1024
    bias_term: false
    pad: 0
    kernel_size: 1
    stride: 1
    weight_filler {
      type: "msra"
    }
  }
}
layer {
  name: "conv5_6/sep/bn"
  type: "BatchNorm"
  bottom: "conv5_6/sep"
  top: "conv5_6/sep"
  param {
    lr_mult: 0
    decay_mult: 0
  }
  param {
    lr_mult: 0
    decay_mult: 0
  }
  param {
    lr_mult: 0
    decay_mult: 0
  }
}
layer {
  name: "conv5_6/sep/scale"
  type: "Scale"
  bottom: "conv5_6/sep"
  top: "conv5_6/sep"
  param {
    lr_mult: 0
    decay_mult: 0
  }
  param {
    lr_mult: 0
    decay_mult: 0
  }
  scale_param {
    filler {
      value: 0
    }
    bias_term: true
    bias_filler {
      value: 0
    }
  }
}
layer {
  name: "relu5_6/sep"
  type: "ReLU"
  bottom: "conv5_6/sep"
  top: "conv5_6/sep"
}
layer {
  name: "conv6/dw"
  type: "Convolution"
  bottom: "conv5_6/sep"
  top: "conv6/dw"
  param {
    lr_mult: 1
    decay_mult: 1
  }
  convolution_param {
    num_output: 1024
    bias_term: false
    pad: 1
    kernel_size: 3
    group: 1024
    stride: 1
    weight_filler {
      type: "msra"
    }
    engine: CAFFE
  }
}
layer {
  name: "conv6/dw/bn"
  type: "BatchNorm"
  bottom: "conv6/dw"
  top: "conv6/dw"
  param {
    lr_mult: 0
    decay_mult: 0
  }
  param {
    lr_mult: 0
    decay_mult: 0
  }
  param {
    lr_mult: 0
    decay_mult: 0
  }
}
layer {
  name: "conv6/dw/scale"
  type: "Scale"
  bottom: "conv6/dw"
  top: "conv6/dw"
  param {
    lr_mult: 0
    decay_mult: 0
  }
  param {
    lr_mult: 0
    decay_mult: 0
  }
  scale_param {
    filler {
      value: 0
    }
    bias_term: true
    bias_filler {
      value: 0
    }
  }
}
layer {
  name: "relu6/dw"
  type: "ReLU"
  bottom: "conv6/dw"
  top: "conv6/dw"
}
layer {
  name: "conv6/sep"
  type: "Convolution"
  bottom: "conv6/dw"
  top: "conv6/sep"
  param {
    lr_mult: 1
    decay_mult: 1
  }
  convolution_param {
    num_output: 1024
    bias_term: false
    pad: 0
    kernel_size: 1
    stride: 1
    weight_filler {
      type: "msra"
    }
  }
}
layer {
  name: "conv6/sep/bn"
  type: "BatchNorm"
  bottom: "conv6/sep"
  top: "conv6/sep"
  param {
    lr_mult: 0
    decay_mult: 0
  }
  param {
    lr_mult: 0
    decay_mult: 0
  }
  param {
    lr_mult: 0
    decay_mult: 0
  }
}
layer {
  name: "conv6/sep/scale"
  type: "Scale"
  bottom: "conv6/sep"
  top: "conv6/sep"
  param {
    lr_mult: 0
    decay_mult: 0
  }
  param {
    lr_mult: 0
    decay_mult: 0
  }
  scale_param {
    filler {
      value: 0
    }
    bias_term: true
    bias_filler {
      value: 0
    }
  }
}
layer {
  name: "relu6/sep"
  type: "ReLU"
  bottom: "conv6/sep"
  top: "conv6/sep"
}
layer {
  name: "pool6"
  type: "Pooling"
  bottom: "conv6/sep"
  top: "pool6"
  pooling_param {
    pool: AVE
    global_pooling: true
  }
}
layer {
  name: "myfc7"
  type: "Convolution"
  bottom: "pool6"
  top: "myfc7"
  param {
    lr_mult: 1
    decay_mult: 1
  }
  param {
    lr_mult: 2
    decay_mult: 0
  }
  convolution_param {
    num_output: 6
    kernel_size: 1
    weight_filler {
      type: "msra"
    }
    bias_filler {
      type: "msra"
    }
  }
}
layer {
  name: "loss"
  type: "SoftmaxWithLoss"
  bottom: "myfc7"
  bottom: "label"
  top: "loss"
}
I0810 11:30:03.815999 30323 layer_factory.hpp:77] Creating layer data_train
I0810 11:30:03.816025 30323 net.cpp:84] Creating Layer data_train
I0810 11:30:03.816033 30323 net.cpp:380] data_train -> data
I0810 11:30:03.816051 30323 net.cpp:380] data_train -> label
I0810 11:30:03.816117 30323 image_data_layer.cpp:38] Opening file /home/liuyp/liu/keras_mobilenet/data3/train_txt.txt
I0810 11:30:03.816823 30323 image_data_layer.cpp:53] Shuffling data
I0810 11:30:03.817152 30323 image_data_layer.cpp:63] A total of 2327 images.
I0810 11:30:03.996343 30323 image_data_layer.cpp:90] output data size: 64,3,224,224
I0810 11:30:04.093377 30323 net.cpp:122] Setting up data_train
I0810 11:30:04.093422 30323 net.cpp:129] Top shape: 64 3 224 224 (9633792)
I0810 11:30:04.093430 30323 net.cpp:129] Top shape: 64 (64)
I0810 11:30:04.093432 30323 net.cpp:137] Memory required for data: 38535424
I0810 11:30:04.093441 30323 layer_factory.hpp:77] Creating layer conv1
I0810 11:30:04.093461 30323 net.cpp:84] Creating Layer conv1
I0810 11:30:04.093466 30323 net.cpp:406] conv1 <- data
I0810 11:30:04.093475 30323 net.cpp:380] conv1 -> conv1
I0810 11:30:04.717763 30323 net.cpp:122] Setting up conv1
I0810 11:30:04.717809 30323 net.cpp:129] Top shape: 64 32 112 112 (25690112)
I0810 11:30:04.717814 30323 net.cpp:137] Memory required for data: 141295872
I0810 11:30:04.717828 30323 layer_factory.hpp:77] Creating layer conv1/bn
I0810 11:30:04.717842 30323 net.cpp:84] Creating Layer conv1/bn
I0810 11:30:04.717847 30323 net.cpp:406] conv1/bn <- conv1
I0810 11:30:04.717857 30323 net.cpp:367] conv1/bn -> conv1 (in-place)
I0810 11:30:04.719146 30323 net.cpp:122] Setting up conv1/bn
I0810 11:30:04.719161 30323 net.cpp:129] Top shape: 64 32 112 112 (25690112)
I0810 11:30:04.719166 30323 net.cpp:137] Memory required for data: 244056320
I0810 11:30:04.719177 30323 layer_factory.hpp:77] Creating layer conv1/scale
I0810 11:30:04.719187 30323 net.cpp:84] Creating Layer conv1/scale
I0810 11:30:04.719190 30323 net.cpp:406] conv1/scale <- conv1
I0810 11:30:04.719197 30323 net.cpp:367] conv1/scale -> conv1 (in-place)
I0810 11:30:04.719245 30323 layer_factory.hpp:77] Creating layer conv1/scale
I0810 11:30:04.719372 30323 net.cpp:122] Setting up conv1/scale
I0810 11:30:04.719380 30323 net.cpp:129] Top shape: 64 32 112 112 (25690112)
I0810 11:30:04.719383 30323 net.cpp:137] Memory required for data: 346816768
I0810 11:30:04.719393 30323 layer_factory.hpp:77] Creating layer relu1
I0810 11:30:04.719401 30323 net.cpp:84] Creating Layer relu1
I0810 11:30:04.719405 30323 net.cpp:406] relu1 <- conv1
I0810 11:30:04.719410 30323 net.cpp:367] relu1 -> conv1 (in-place)
I0810 11:30:04.719974 30323 net.cpp:122] Setting up relu1
I0810 11:30:04.719987 30323 net.cpp:129] Top shape: 64 32 112 112 (25690112)
I0810 11:30:04.719991 30323 net.cpp:137] Memory required for data: 449577216
I0810 11:30:04.719995 30323 layer_factory.hpp:77] Creating layer conv2_1/dw
I0810 11:30:04.720006 30323 net.cpp:84] Creating Layer conv2_1/dw
I0810 11:30:04.720010 30323 net.cpp:406] conv2_1/dw <- conv1
I0810 11:30:04.720018 30323 net.cpp:380] conv2_1/dw -> conv2_1/dw
I0810 11:30:04.720223 30323 net.cpp:122] Setting up conv2_1/dw
I0810 11:30:04.720232 30323 net.cpp:129] Top shape: 64 32 112 112 (25690112)
I0810 11:30:04.720235 30323 net.cpp:137] Memory required for data: 552337664
I0810 11:30:04.720240 30323 layer_factory.hpp:77] Creating layer conv2_1/dw/bn
I0810 11:30:04.720247 30323 net.cpp:84] Creating Layer conv2_1/dw/bn
I0810 11:30:04.720250 30323 net.cpp:406] conv2_1/dw/bn <- conv2_1/dw
I0810 11:30:04.720257 30323 net.cpp:367] conv2_1/dw/bn -> conv2_1/dw (in-place)
I0810 11:30:04.720448 30323 net.cpp:122] Setting up conv2_1/dw/bn
I0810 11:30:04.720454 30323 net.cpp:129] Top shape: 64 32 112 112 (25690112)
I0810 11:30:04.720458 30323 net.cpp:137] Memory required for data: 655098112
I0810 11:30:04.720466 30323 layer_factory.hpp:77] Creating layer conv2_1/dw/scale
I0810 11:30:04.720474 30323 net.cpp:84] Creating Layer conv2_1/dw/scale
I0810 11:30:04.720477 30323 net.cpp:406] conv2_1/dw/scale <- conv2_1/dw
I0810 11:30:04.720482 30323 net.cpp:367] conv2_1/dw/scale -> conv2_1/dw (in-place)
I0810 11:30:04.720522 30323 layer_factory.hpp:77] Creating layer conv2_1/dw/scale
I0810 11:30:04.720643 30323 net.cpp:122] Setting up conv2_1/dw/scale
I0810 11:30:04.720661 30323 net.cpp:129] Top shape: 64 32 112 112 (25690112)
I0810 11:30:04.720665 30323 net.cpp:137] Memory required for data: 757858560
I0810 11:30:04.720671 30323 layer_factory.hpp:77] Creating layer relu2_1/dw
I0810 11:30:04.720677 30323 net.cpp:84] Creating Layer relu2_1/dw
I0810 11:30:04.720681 30323 net.cpp:406] relu2_1/dw <- conv2_1/dw
I0810 11:30:04.720686 30323 net.cpp:367] relu2_1/dw -> conv2_1/dw (in-place)
I0810 11:30:04.721452 30323 net.cpp:122] Setting up relu2_1/dw
I0810 11:30:04.721467 30323 net.cpp:129] Top shape: 64 32 112 112 (25690112)
I0810 11:30:04.721472 30323 net.cpp:137] Memory required for data: 860619008
I0810 11:30:04.721477 30323 layer_factory.hpp:77] Creating layer conv2_1/sep
I0810 11:30:04.721485 30323 net.cpp:84] Creating Layer conv2_1/sep
I0810 11:30:04.721490 30323 net.cpp:406] conv2_1/sep <- conv2_1/dw
I0810 11:30:04.721498 30323 net.cpp:380] conv2_1/sep -> conv2_1/sep
I0810 11:30:04.724727 30323 net.cpp:122] Setting up conv2_1/sep
I0810 11:30:04.724745 30323 net.cpp:129] Top shape: 64 64 112 112 (51380224)
I0810 11:30:04.724750 30323 net.cpp:137] Memory required for data: 1066139904
I0810 11:30:04.724756 30323 layer_factory.hpp:77] Creating layer conv2_1/sep/bn
I0810 11:30:04.724763 30323 net.cpp:84] Creating Layer conv2_1/sep/bn
I0810 11:30:04.724767 30323 net.cpp:406] conv2_1/sep/bn <- conv2_1/sep
I0810 11:30:04.724774 30323 net.cpp:367] conv2_1/sep/bn -> conv2_1/sep (in-place)
I0810 11:30:04.724978 30323 net.cpp:122] Setting up conv2_1/sep/bn
I0810 11:30:04.724987 30323 net.cpp:129] Top shape: 64 64 112 112 (51380224)
I0810 11:30:04.724989 30323 net.cpp:137] Memory required for data: 1271660800
I0810 11:30:04.724997 30323 layer_factory.hpp:77] Creating layer conv2_1/sep/scale
I0810 11:30:04.725003 30323 net.cpp:84] Creating Layer conv2_1/sep/scale
I0810 11:30:04.725008 30323 net.cpp:406] conv2_1/sep/scale <- conv2_1/sep
I0810 11:30:04.725014 30323 net.cpp:367] conv2_1/sep/scale -> conv2_1/sep (in-place)
I0810 11:30:04.725050 30323 layer_factory.hpp:77] Creating layer conv2_1/sep/scale
I0810 11:30:04.725178 30323 net.cpp:122] Setting up conv2_1/sep/scale
I0810 11:30:04.725186 30323 net.cpp:129] Top shape: 64 64 112 112 (51380224)
I0810 11:30:04.725190 30323 net.cpp:137] Memory required for data: 1477181696
I0810 11:30:04.725198 30323 layer_factory.hpp:77] Creating layer relu2_1/sep
I0810 11:30:04.725206 30323 net.cpp:84] Creating Layer relu2_1/sep
I0810 11:30:04.725210 30323 net.cpp:406] relu2_1/sep <- conv2_1/sep
I0810 11:30:04.725215 30323 net.cpp:367] relu2_1/sep -> conv2_1/sep (in-place)
I0810 11:30:04.726023 30323 net.cpp:122] Setting up relu2_1/sep
I0810 11:30:04.726039 30323 net.cpp:129] Top shape: 64 64 112 112 (51380224)
I0810 11:30:04.726043 30323 net.cpp:137] Memory required for data: 1682702592
I0810 11:30:04.726047 30323 layer_factory.hpp:77] Creating layer conv2_2/dw
I0810 11:30:04.726056 30323 net.cpp:84] Creating Layer conv2_2/dw
I0810 11:30:04.726061 30323 net.cpp:406] conv2_2/dw <- conv2_1/sep
I0810 11:30:04.726069 30323 net.cpp:380] conv2_2/dw -> conv2_2/dw
I0810 11:30:04.726281 30323 net.cpp:122] Setting up conv2_2/dw
I0810 11:30:04.726289 30323 net.cpp:129] Top shape: 64 64 56 56 (12845056)
I0810 11:30:04.726292 30323 net.cpp:137] Memory required for data: 1734082816
I0810 11:30:04.726299 30323 layer_factory.hpp:77] Creating layer conv2_2/dw/bn
I0810 11:30:04.726303 30323 net.cpp:84] Creating Layer conv2_2/dw/bn
I0810 11:30:04.726307 30323 net.cpp:406] conv2_2/dw/bn <- conv2_2/dw
I0810 11:30:04.726312 30323 net.cpp:367] conv2_2/dw/bn -> conv2_2/dw (in-place)
I0810 11:30:04.726510 30323 net.cpp:122] Setting up conv2_2/dw/bn
I0810 11:30:04.726516 30323 net.cpp:129] Top shape: 64 64 56 56 (12845056)
I0810 11:30:04.726519 30323 net.cpp:137] Memory required for data: 1785463040
I0810 11:30:04.726526 30323 layer_factory.hpp:77] Creating layer conv2_2/dw/scale
I0810 11:30:04.726533 30323 net.cpp:84] Creating Layer conv2_2/dw/scale
I0810 11:30:04.726537 30323 net.cpp:406] conv2_2/dw/scale <- conv2_2/dw
I0810 11:30:04.726542 30323 net.cpp:367] conv2_2/dw/scale -> conv2_2/dw (in-place)
I0810 11:30:04.726588 30323 layer_factory.hpp:77] Creating layer conv2_2/dw/scale
I0810 11:30:04.726709 30323 net.cpp:122] Setting up conv2_2/dw/scale
I0810 11:30:04.726716 30323 net.cpp:129] Top shape: 64 64 56 56 (12845056)
I0810 11:30:04.726719 30323 net.cpp:137] Memory required for data: 1836843264
I0810 11:30:04.726725 30323 layer_factory.hpp:77] Creating layer relu2_2/dw
I0810 11:30:04.726734 30323 net.cpp:84] Creating Layer relu2_2/dw
I0810 11:30:04.726738 30323 net.cpp:406] relu2_2/dw <- conv2_2/dw
I0810 11:30:04.726743 30323 net.cpp:367] relu2_2/dw -> conv2_2/dw (in-place)
I0810 11:30:04.727316 30323 net.cpp:122] Setting up relu2_2/dw
I0810 11:30:04.727327 30323 net.cpp:129] Top shape: 64 64 56 56 (12845056)
I0810 11:30:04.727330 30323 net.cpp:137] Memory required for data: 1888223488
I0810 11:30:04.727334 30323 layer_factory.hpp:77] Creating layer conv2_2/sep
I0810 11:30:04.727344 30323 net.cpp:84] Creating Layer conv2_2/sep
I0810 11:30:04.727349 30323 net.cpp:406] conv2_2/sep <- conv2_2/dw
I0810 11:30:04.727356 30323 net.cpp:380] conv2_2/sep -> conv2_2/sep
I0810 11:30:04.729648 30323 net.cpp:122] Setting up conv2_2/sep
I0810 11:30:04.729663 30323 net.cpp:129] Top shape: 64 128 56 56 (25690112)
I0810 11:30:04.729668 30323 net.cpp:137] Memory required for data: 1990983936
I0810 11:30:04.729674 30323 layer_factory.hpp:77] Creating layer conv2_2/sep/bn
I0810 11:30:04.729683 30323 net.cpp:84] Creating Layer conv2_2/sep/bn
I0810 11:30:04.729687 30323 net.cpp:406] conv2_2/sep/bn <- conv2_2/sep
I0810 11:30:04.729696 30323 net.cpp:367] conv2_2/sep/bn -> conv2_2/sep (in-place)
I0810 11:30:04.729898 30323 net.cpp:122] Setting up conv2_2/sep/bn
I0810 11:30:04.729907 30323 net.cpp:129] Top shape: 64 128 56 56 (25690112)
I0810 11:30:04.729910 30323 net.cpp:137] Memory required for data: 2093744384
I0810 11:30:04.729931 30323 layer_factory.hpp:77] Creating layer conv2_2/sep/scale
I0810 11:30:04.729941 30323 net.cpp:84] Creating Layer conv2_2/sep/scale
I0810 11:30:04.729945 30323 net.cpp:406] conv2_2/sep/scale <- conv2_2/sep
I0810 11:30:04.729950 30323 net.cpp:367] conv2_2/sep/scale -> conv2_2/sep (in-place)
I0810 11:30:04.729990 30323 layer_factory.hpp:77] Creating layer conv2_2/sep/scale
I0810 11:30:04.730103 30323 net.cpp:122] Setting up conv2_2/sep/scale
I0810 11:30:04.730109 30323 net.cpp:129] Top shape: 64 128 56 56 (25690112)
I0810 11:30:04.730113 30323 net.cpp:137] Memory required for data: 2196504832
I0810 11:30:04.730118 30323 layer_factory.hpp:77] Creating layer relu2_2/sep
I0810 11:30:04.730124 30323 net.cpp:84] Creating Layer relu2_2/sep
I0810 11:30:04.730129 30323 net.cpp:406] relu2_2/sep <- conv2_2/sep
I0810 11:30:04.730134 30323 net.cpp:367] relu2_2/sep -> conv2_2/sep (in-place)
I0810 11:30:04.730918 30323 net.cpp:122] Setting up relu2_2/sep
I0810 11:30:04.730932 30323 net.cpp:129] Top shape: 64 128 56 56 (25690112)
I0810 11:30:04.730937 30323 net.cpp:137] Memory required for data: 2299265280
I0810 11:30:04.730940 30323 layer_factory.hpp:77] Creating layer conv3_1/dw
I0810 11:30:04.730952 30323 net.cpp:84] Creating Layer conv3_1/dw
I0810 11:30:04.730957 30323 net.cpp:406] conv3_1/dw <- conv2_2/sep
I0810 11:30:04.730962 30323 net.cpp:380] conv3_1/dw -> conv3_1/dw
I0810 11:30:04.731181 30323 net.cpp:122] Setting up conv3_1/dw
I0810 11:30:04.731190 30323 net.cpp:129] Top shape: 64 128 56 56 (25690112)
I0810 11:30:04.731194 30323 net.cpp:137] Memory required for data: 2402025728
I0810 11:30:04.731199 30323 layer_factory.hpp:77] Creating layer conv3_1/dw/bn
I0810 11:30:04.731204 30323 net.cpp:84] Creating Layer conv3_1/dw/bn
I0810 11:30:04.731209 30323 net.cpp:406] conv3_1/dw/bn <- conv3_1/dw
I0810 11:30:04.731214 30323 net.cpp:367] conv3_1/dw/bn -> conv3_1/dw (in-place)
I0810 11:30:04.731400 30323 net.cpp:122] Setting up conv3_1/dw/bn
I0810 11:30:04.731406 30323 net.cpp:129] Top shape: 64 128 56 56 (25690112)
I0810 11:30:04.731410 30323 net.cpp:137] Memory required for data: 2504786176
I0810 11:30:04.731422 30323 layer_factory.hpp:77] Creating layer conv3_1/dw/scale
I0810 11:30:04.731436 30323 net.cpp:84] Creating Layer conv3_1/dw/scale
I0810 11:30:04.731439 30323 net.cpp:406] conv3_1/dw/scale <- conv3_1/dw
I0810 11:30:04.731446 30323 net.cpp:367] conv3_1/dw/scale -> conv3_1/dw (in-place)
I0810 11:30:04.731487 30323 layer_factory.hpp:77] Creating layer conv3_1/dw/scale
I0810 11:30:04.731600 30323 net.cpp:122] Setting up conv3_1/dw/scale
I0810 11:30:04.731606 30323 net.cpp:129] Top shape: 64 128 56 56 (25690112)
I0810 11:30:04.731611 30323 net.cpp:137] Memory required for data: 2607546624
I0810 11:30:04.731616 30323 layer_factory.hpp:77] Creating layer relu3_1/dw
I0810 11:30:04.731621 30323 net.cpp:84] Creating Layer relu3_1/dw
I0810 11:30:04.731626 30323 net.cpp:406] relu3_1/dw <- conv3_1/dw
I0810 11:30:04.731633 30323 net.cpp:367] relu3_1/dw -> conv3_1/dw (in-place)
I0810 11:30:04.732205 30323 net.cpp:122] Setting up relu3_1/dw
I0810 11:30:04.732215 30323 net.cpp:129] Top shape: 64 128 56 56 (25690112)
I0810 11:30:04.732218 30323 net.cpp:137] Memory required for data: 2710307072
I0810 11:30:04.732223 30323 layer_factory.hpp:77] Creating layer conv3_1/sep
I0810 11:30:04.732233 30323 net.cpp:84] Creating Layer conv3_1/sep
I0810 11:30:04.732236 30323 net.cpp:406] conv3_1/sep <- conv3_1/dw
I0810 11:30:04.732244 30323 net.cpp:380] conv3_1/sep -> conv3_1/sep
I0810 11:30:04.734622 30323 net.cpp:122] Setting up conv3_1/sep
I0810 11:30:04.734637 30323 net.cpp:129] Top shape: 64 128 56 56 (25690112)
I0810 11:30:04.734640 30323 net.cpp:137] Memory required for data: 2813067520
I0810 11:30:04.734647 30323 layer_factory.hpp:77] Creating layer conv3_1/sep/bn
I0810 11:30:04.734658 30323 net.cpp:84] Creating Layer conv3_1/sep/bn
I0810 11:30:04.734663 30323 net.cpp:406] conv3_1/sep/bn <- conv3_1/sep
I0810 11:30:04.734669 30323 net.cpp:367] conv3_1/sep/bn -> conv3_1/sep (in-place)
I0810 11:30:04.734874 30323 net.cpp:122] Setting up conv3_1/sep/bn
I0810 11:30:04.734881 30323 net.cpp:129] Top shape: 64 128 56 56 (25690112)
I0810 11:30:04.734884 30323 net.cpp:137] Memory required for data: 2915827968
I0810 11:30:04.734891 30323 layer_factory.hpp:77] Creating layer conv3_1/sep/scale
I0810 11:30:04.734900 30323 net.cpp:84] Creating Layer conv3_1/sep/scale
I0810 11:30:04.734905 30323 net.cpp:406] conv3_1/sep/scale <- conv3_1/sep
I0810 11:30:04.734910 30323 net.cpp:367] conv3_1/sep/scale -> conv3_1/sep (in-place)
I0810 11:30:04.734949 30323 layer_factory.hpp:77] Creating layer conv3_1/sep/scale
I0810 11:30:04.735066 30323 net.cpp:122] Setting up conv3_1/sep/scale
I0810 11:30:04.735074 30323 net.cpp:129] Top shape: 64 128 56 56 (25690112)
I0810 11:30:04.735076 30323 net.cpp:137] Memory required for data: 3018588416
I0810 11:30:04.735082 30323 layer_factory.hpp:77] Creating layer relu3_1/sep
I0810 11:30:04.735090 30323 net.cpp:84] Creating Layer relu3_1/sep
I0810 11:30:04.735095 30323 net.cpp:406] relu3_1/sep <- conv3_1/sep
I0810 11:30:04.735098 30323 net.cpp:367] relu3_1/sep -> conv3_1/sep (in-place)
I0810 11:30:04.735868 30323 net.cpp:122] Setting up relu3_1/sep
I0810 11:30:04.735883 30323 net.cpp:129] Top shape: 64 128 56 56 (25690112)
I0810 11:30:04.735888 30323 net.cpp:137] Memory required for data: 3121348864
I0810 11:30:04.735891 30323 layer_factory.hpp:77] Creating layer conv3_2/dw
I0810 11:30:04.735900 30323 net.cpp:84] Creating Layer conv3_2/dw
I0810 11:30:04.735904 30323 net.cpp:406] conv3_2/dw <- conv3_1/sep
I0810 11:30:04.735913 30323 net.cpp:380] conv3_2/dw -> conv3_2/dw
I0810 11:30:04.736137 30323 net.cpp:122] Setting up conv3_2/dw
I0810 11:30:04.736145 30323 net.cpp:129] Top shape: 64 128 28 28 (6422528)
I0810 11:30:04.736148 30323 net.cpp:137] Memory required for data: 3147038976
I0810 11:30:04.736155 30323 layer_factory.hpp:77] Creating layer conv3_2/dw/bn
I0810 11:30:04.736160 30323 net.cpp:84] Creating Layer conv3_2/dw/bn
I0810 11:30:04.736163 30323 net.cpp:406] conv3_2/dw/bn <- conv3_2/dw
I0810 11:30:04.736168 30323 net.cpp:367] conv3_2/dw/bn -> conv3_2/dw (in-place)
I0810 11:30:04.736371 30323 net.cpp:122] Setting up conv3_2/dw/bn
I0810 11:30:04.736378 30323 net.cpp:129] Top shape: 64 128 28 28 (6422528)
I0810 11:30:04.736387 30323 net.cpp:137] Memory required for data: 3172729088
I0810 11:30:04.736394 30323 layer_factory.hpp:77] Creating layer conv3_2/dw/scale
I0810 11:30:04.736402 30323 net.cpp:84] Creating Layer conv3_2/dw/scale
I0810 11:30:04.736407 30323 net.cpp:406] conv3_2/dw/scale <- conv3_2/dw
I0810 11:30:04.736412 30323 net.cpp:367] conv3_2/dw/scale -> conv3_2/dw (in-place)
I0810 11:30:04.736454 30323 layer_factory.hpp:77] Creating layer conv3_2/dw/scale
I0810 11:30:04.736574 30323 net.cpp:122] Setting up conv3_2/dw/scale
I0810 11:30:04.736582 30323 net.cpp:129] Top shape: 64 128 28 28 (6422528)
I0810 11:30:04.736584 30323 net.cpp:137] Memory required for data: 3198419200
I0810 11:30:04.736590 30323 layer_factory.hpp:77] Creating layer relu3_2/dw
I0810 11:30:04.736603 30323 net.cpp:84] Creating Layer relu3_2/dw
I0810 11:30:04.736608 30323 net.cpp:406] relu3_2/dw <- conv3_2/dw
I0810 11:30:04.736611 30323 net.cpp:367] relu3_2/dw -> conv3_2/dw (in-place)
I0810 11:30:04.737212 30323 net.cpp:122] Setting up relu3_2/dw
I0810 11:30:04.737222 30323 net.cpp:129] Top shape: 64 128 28 28 (6422528)
I0810 11:30:04.737226 30323 net.cpp:137] Memory required for data: 3224109312
I0810 11:30:04.737231 30323 layer_factory.hpp:77] Creating layer conv3_2/sep
I0810 11:30:04.737241 30323 net.cpp:84] Creating Layer conv3_2/sep
I0810 11:30:04.737244 30323 net.cpp:406] conv3_2/sep <- conv3_2/dw
I0810 11:30:04.737252 30323 net.cpp:380] conv3_2/sep -> conv3_2/sep
I0810 11:30:04.740821 30323 net.cpp:122] Setting up conv3_2/sep
I0810 11:30:04.740837 30323 net.cpp:129] Top shape: 64 256 28 28 (12845056)
I0810 11:30:04.740841 30323 net.cpp:137] Memory required for data: 3275489536
I0810 11:30:04.740847 30323 layer_factory.hpp:77] Creating layer conv3_2/sep/bn
I0810 11:30:04.740854 30323 net.cpp:84] Creating Layer conv3_2/sep/bn
I0810 11:30:04.740859 30323 net.cpp:406] conv3_2/sep/bn <- conv3_2/sep
I0810 11:30:04.740866 30323 net.cpp:367] conv3_2/sep/bn -> conv3_2/sep (in-place)
I0810 11:30:04.741077 30323 net.cpp:122] Setting up conv3_2/sep/bn
I0810 11:30:04.741086 30323 net.cpp:129] Top shape: 64 256 28 28 (12845056)
I0810 11:30:04.741088 30323 net.cpp:137] Memory required for data: 3326869760
I0810 11:30:04.741096 30323 layer_factory.hpp:77] Creating layer conv3_2/sep/scale
I0810 11:30:04.741102 30323 net.cpp:84] Creating Layer conv3_2/sep/scale
I0810 11:30:04.741106 30323 net.cpp:406] conv3_2/sep/scale <- conv3_2/sep
I0810 11:30:04.741113 30323 net.cpp:367] conv3_2/sep/scale -> conv3_2/sep (in-place)
I0810 11:30:04.741155 30323 layer_factory.hpp:77] Creating layer conv3_2/sep/scale
I0810 11:30:04.741276 30323 net.cpp:122] Setting up conv3_2/sep/scale
I0810 11:30:04.741282 30323 net.cpp:129] Top shape: 64 256 28 28 (12845056)
I0810 11:30:04.741286 30323 net.cpp:137] Memory required for data: 3378249984
I0810 11:30:04.741292 30323 layer_factory.hpp:77] Creating layer relu3_2/sep
I0810 11:30:04.741297 30323 net.cpp:84] Creating Layer relu3_2/sep
I0810 11:30:04.741302 30323 net.cpp:406] relu3_2/sep <- conv3_2/sep
I0810 11:30:04.741307 30323 net.cpp:367] relu3_2/sep -> conv3_2/sep (in-place)
I0810 11:30:04.742094 30323 net.cpp:122] Setting up relu3_2/sep
I0810 11:30:04.742110 30323 net.cpp:129] Top shape: 64 256 28 28 (12845056)
I0810 11:30:04.742112 30323 net.cpp:137] Memory required for data: 3429630208
I0810 11:30:04.742116 30323 layer_factory.hpp:77] Creating layer conv4_1/dw
I0810 11:30:04.742130 30323 net.cpp:84] Creating Layer conv4_1/dw
I0810 11:30:04.742135 30323 net.cpp:406] conv4_1/dw <- conv3_2/sep
I0810 11:30:04.742141 30323 net.cpp:380] conv4_1/dw -> conv4_1/dw
I0810 11:30:04.742374 30323 net.cpp:122] Setting up conv4_1/dw
I0810 11:30:04.742383 30323 net.cpp:129] Top shape: 64 256 28 28 (12845056)
I0810 11:30:04.742386 30323 net.cpp:137] Memory required for data: 3481010432
I0810 11:30:04.742391 30323 layer_factory.hpp:77] Creating layer conv4_1/dw/bn
I0810 11:30:04.742399 30323 net.cpp:84] Creating Layer conv4_1/dw/bn
I0810 11:30:04.742403 30323 net.cpp:406] conv4_1/dw/bn <- conv4_1/dw
I0810 11:30:04.742408 30323 net.cpp:367] conv4_1/dw/bn -> conv4_1/dw (in-place)
I0810 11:30:04.742619 30323 net.cpp:122] Setting up conv4_1/dw/bn
I0810 11:30:04.742626 30323 net.cpp:129] Top shape: 64 256 28 28 (12845056)
I0810 11:30:04.742630 30323 net.cpp:137] Memory required for data: 3532390656
I0810 11:30:04.742636 30323 layer_factory.hpp:77] Creating layer conv4_1/dw/scale
I0810 11:30:04.742643 30323 net.cpp:84] Creating Layer conv4_1/dw/scale
I0810 11:30:04.742647 30323 net.cpp:406] conv4_1/dw/scale <- conv4_1/dw
I0810 11:30:04.742655 30323 net.cpp:367] conv4_1/dw/scale -> conv4_1/dw (in-place)
I0810 11:30:04.742696 30323 layer_factory.hpp:77] Creating layer conv4_1/dw/scale
I0810 11:30:04.742815 30323 net.cpp:122] Setting up conv4_1/dw/scale
I0810 11:30:04.742821 30323 net.cpp:129] Top shape: 64 256 28 28 (12845056)
I0810 11:30:04.742825 30323 net.cpp:137] Memory required for data: 3583770880
I0810 11:30:04.742831 30323 layer_factory.hpp:77] Creating layer relu4_1/dw
I0810 11:30:04.742836 30323 net.cpp:84] Creating Layer relu4_1/dw
I0810 11:30:04.742841 30323 net.cpp:406] relu4_1/dw <- conv4_1/dw
I0810 11:30:04.742847 30323 net.cpp:367] relu4_1/dw -> conv4_1/dw (in-place)
I0810 11:30:04.743427 30323 net.cpp:122] Setting up relu4_1/dw
I0810 11:30:04.743438 30323 net.cpp:129] Top shape: 64 256 28 28 (12845056)
I0810 11:30:04.743443 30323 net.cpp:137] Memory required for data: 3635151104
I0810 11:30:04.743446 30323 layer_factory.hpp:77] Creating layer conv4_1/sep
I0810 11:30:04.743456 30323 net.cpp:84] Creating Layer conv4_1/sep
I0810 11:30:04.743460 30323 net.cpp:406] conv4_1/sep <- conv4_1/dw
I0810 11:30:04.743466 30323 net.cpp:380] conv4_1/sep -> conv4_1/sep
I0810 11:30:04.746495 30323 net.cpp:122] Setting up conv4_1/sep
I0810 11:30:04.746510 30323 net.cpp:129] Top shape: 64 256 28 28 (12845056)
I0810 11:30:04.746515 30323 net.cpp:137] Memory required for data: 3686531328
I0810 11:30:04.746520 30323 layer_factory.hpp:77] Creating layer conv4_1/sep/bn
I0810 11:30:04.746529 30323 net.cpp:84] Creating Layer conv4_1/sep/bn
I0810 11:30:04.746534 30323 net.cpp:406] conv4_1/sep/bn <- conv4_1/sep
I0810 11:30:04.746539 30323 net.cpp:367] conv4_1/sep/bn -> conv4_1/sep (in-place)
I0810 11:30:04.746754 30323 net.cpp:122] Setting up conv4_1/sep/bn
I0810 11:30:04.746762 30323 net.cpp:129] Top shape: 64 256 28 28 (12845056)
I0810 11:30:04.746765 30323 net.cpp:137] Memory required for data: 3737911552
I0810 11:30:04.746773 30323 layer_factory.hpp:77] Creating layer conv4_1/sep/scale
I0810 11:30:04.746779 30323 net.cpp:84] Creating Layer conv4_1/sep/scale
I0810 11:30:04.746783 30323 net.cpp:406] conv4_1/sep/scale <- conv4_1/sep
I0810 11:30:04.746788 30323 net.cpp:367] conv4_1/sep/scale -> conv4_1/sep (in-place)
I0810 11:30:04.746832 30323 layer_factory.hpp:77] Creating layer conv4_1/sep/scale
I0810 11:30:04.746951 30323 net.cpp:122] Setting up conv4_1/sep/scale
I0810 11:30:04.746959 30323 net.cpp:129] Top shape: 64 256 28 28 (12845056)
I0810 11:30:04.746963 30323 net.cpp:137] Memory required for data: 3789291776
I0810 11:30:04.746976 30323 layer_factory.hpp:77] Creating layer relu4_1/sep
I0810 11:30:04.746982 30323 net.cpp:84] Creating Layer relu4_1/sep
I0810 11:30:04.746986 30323 net.cpp:406] relu4_1/sep <- conv4_1/sep
I0810 11:30:04.746994 30323 net.cpp:367] relu4_1/sep -> conv4_1/sep (in-place)
I0810 11:30:04.747586 30323 net.cpp:122] Setting up relu4_1/sep
I0810 11:30:04.747597 30323 net.cpp:129] Top shape: 64 256 28 28 (12845056)
I0810 11:30:04.747601 30323 net.cpp:137] Memory required for data: 3840672000
I0810 11:30:04.747606 30323 layer_factory.hpp:77] Creating layer conv4_2/dw
I0810 11:30:04.747614 30323 net.cpp:84] Creating Layer conv4_2/dw
I0810 11:30:04.747618 30323 net.cpp:406] conv4_2/dw <- conv4_1/sep
I0810 11:30:04.747627 30323 net.cpp:380] conv4_2/dw -> conv4_2/dw
I0810 11:30:04.747867 30323 net.cpp:122] Setting up conv4_2/dw
I0810 11:30:04.747875 30323 net.cpp:129] Top shape: 64 256 14 14 (3211264)
I0810 11:30:04.747879 30323 net.cpp:137] Memory required for data: 3853517056
I0810 11:30:04.747884 30323 layer_factory.hpp:77] Creating layer conv4_2/dw/bn
I0810 11:30:04.747895 30323 net.cpp:84] Creating Layer conv4_2/dw/bn
I0810 11:30:04.747898 30323 net.cpp:406] conv4_2/dw/bn <- conv4_2/dw
I0810 11:30:04.747903 30323 net.cpp:367] conv4_2/dw/bn -> conv4_2/dw (in-place)
I0810 11:30:04.748107 30323 net.cpp:122] Setting up conv4_2/dw/bn
I0810 11:30:04.748114 30323 net.cpp:129] Top shape: 64 256 14 14 (3211264)
I0810 11:30:04.748118 30323 net.cpp:137] Memory required for data: 3866362112
I0810 11:30:04.748124 30323 layer_factory.hpp:77] Creating layer conv4_2/dw/scale
I0810 11:30:04.748133 30323 net.cpp:84] Creating Layer conv4_2/dw/scale
I0810 11:30:04.748137 30323 net.cpp:406] conv4_2/dw/scale <- conv4_2/dw
I0810 11:30:04.748142 30323 net.cpp:367] conv4_2/dw/scale -> conv4_2/dw (in-place)
I0810 11:30:04.748183 30323 layer_factory.hpp:77] Creating layer conv4_2/dw/scale
I0810 11:30:04.748301 30323 net.cpp:122] Setting up conv4_2/dw/scale
I0810 11:30:04.748308 30323 net.cpp:129] Top shape: 64 256 14 14 (3211264)
I0810 11:30:04.748311 30323 net.cpp:137] Memory required for data: 3879207168
I0810 11:30:04.748317 30323 layer_factory.hpp:77] Creating layer relu4_2/dw
I0810 11:30:04.748324 30323 net.cpp:84] Creating Layer relu4_2/dw
I0810 11:30:04.748328 30323 net.cpp:406] relu4_2/dw <- conv4_2/dw
I0810 11:30:04.748333 30323 net.cpp:367] relu4_2/dw -> conv4_2/dw (in-place)
I0810 11:30:04.748940 30323 net.cpp:122] Setting up relu4_2/dw
I0810 11:30:04.748950 30323 net.cpp:129] Top shape: 64 256 14 14 (3211264)
I0810 11:30:04.748955 30323 net.cpp:137] Memory required for data: 3892052224
I0810 11:30:04.748958 30323 layer_factory.hpp:77] Creating layer conv4_2/sep
I0810 11:30:04.748967 30323 net.cpp:84] Creating Layer conv4_2/sep
I0810 11:30:04.748972 30323 net.cpp:406] conv4_2/sep <- conv4_2/dw
I0810 11:30:04.748978 30323 net.cpp:380] conv4_2/sep -> conv4_2/sep
I0810 11:30:04.753657 30323 net.cpp:122] Setting up conv4_2/sep
I0810 11:30:04.753675 30323 net.cpp:129] Top shape: 64 512 14 14 (6422528)
I0810 11:30:04.753680 30323 net.cpp:137] Memory required for data: 3917742336
I0810 11:30:04.753686 30323 layer_factory.hpp:77] Creating layer conv4_2/sep/bn
I0810 11:30:04.753693 30323 net.cpp:84] Creating Layer conv4_2/sep/bn
I0810 11:30:04.753698 30323 net.cpp:406] conv4_2/sep/bn <- conv4_2/sep
I0810 11:30:04.753705 30323 net.cpp:367] conv4_2/sep/bn -> conv4_2/sep (in-place)
I0810 11:30:04.753937 30323 net.cpp:122] Setting up conv4_2/sep/bn
I0810 11:30:04.753959 30323 net.cpp:129] Top shape: 64 512 14 14 (6422528)
I0810 11:30:04.753962 30323 net.cpp:137] Memory required for data: 3943432448
I0810 11:30:04.753970 30323 layer_factory.hpp:77] Creating layer conv4_2/sep/scale
I0810 11:30:04.753978 30323 net.cpp:84] Creating Layer conv4_2/sep/scale
I0810 11:30:04.753983 30323 net.cpp:406] conv4_2/sep/scale <- conv4_2/sep
I0810 11:30:04.753988 30323 net.cpp:367] conv4_2/sep/scale -> conv4_2/sep (in-place)
I0810 11:30:04.754027 30323 layer_factory.hpp:77] Creating layer conv4_2/sep/scale
I0810 11:30:04.754158 30323 net.cpp:122] Setting up conv4_2/sep/scale
I0810 11:30:04.754165 30323 net.cpp:129] Top shape: 64 512 14 14 (6422528)
I0810 11:30:04.754168 30323 net.cpp:137] Memory required for data: 3969122560
I0810 11:30:04.754174 30323 layer_factory.hpp:77] Creating layer relu4_2/sep
I0810 11:30:04.754180 30323 net.cpp:84] Creating Layer relu4_2/sep
I0810 11:30:04.754184 30323 net.cpp:406] relu4_2/sep <- conv4_2/sep
I0810 11:30:04.754190 30323 net.cpp:367] relu4_2/sep -> conv4_2/sep (in-place)
I0810 11:30:04.754779 30323 net.cpp:122] Setting up relu4_2/sep
I0810 11:30:04.754794 30323 net.cpp:129] Top shape: 64 512 14 14 (6422528)
I0810 11:30:04.754798 30323 net.cpp:137] Memory required for data: 3994812672
I0810 11:30:04.754802 30323 layer_factory.hpp:77] Creating layer conv5_1/dw
I0810 11:30:04.754812 30323 net.cpp:84] Creating Layer conv5_1/dw
I0810 11:30:04.754817 30323 net.cpp:406] conv5_1/dw <- conv4_2/sep
I0810 11:30:04.754822 30323 net.cpp:380] conv5_1/dw -> conv5_1/dw
I0810 11:30:04.755079 30323 net.cpp:122] Setting up conv5_1/dw
I0810 11:30:04.755086 30323 net.cpp:129] Top shape: 64 512 14 14 (6422528)
I0810 11:30:04.755095 30323 net.cpp:137] Memory required for data: 4020502784
I0810 11:30:04.755100 30323 layer_factory.hpp:77] Creating layer conv5_1/dw/bn
I0810 11:30:04.755106 30323 net.cpp:84] Creating Layer conv5_1/dw/bn
I0810 11:30:04.755110 30323 net.cpp:406] conv5_1/dw/bn <- conv5_1/dw
I0810 11:30:04.755117 30323 net.cpp:367] conv5_1/dw/bn -> conv5_1/dw (in-place)
I0810 11:30:04.755326 30323 net.cpp:122] Setting up conv5_1/dw/bn
I0810 11:30:04.755333 30323 net.cpp:129] Top shape: 64 512 14 14 (6422528)
I0810 11:30:04.755337 30323 net.cpp:137] Memory required for data: 4046192896
I0810 11:30:04.755343 30323 layer_factory.hpp:77] Creating layer conv5_1/dw/scale
I0810 11:30:04.755350 30323 net.cpp:84] Creating Layer conv5_1/dw/scale
I0810 11:30:04.755354 30323 net.cpp:406] conv5_1/dw/scale <- conv5_1/dw
I0810 11:30:04.755362 30323 net.cpp:367] conv5_1/dw/scale -> conv5_1/dw (in-place)
I0810 11:30:04.755398 30323 layer_factory.hpp:77] Creating layer conv5_1/dw/scale
I0810 11:30:04.755519 30323 net.cpp:122] Setting up conv5_1/dw/scale
I0810 11:30:04.755527 30323 net.cpp:129] Top shape: 64 512 14 14 (6422528)
I0810 11:30:04.755530 30323 net.cpp:137] Memory required for data: 4071883008
I0810 11:30:04.755537 30323 layer_factory.hpp:77] Creating layer relu5_1/dw
I0810 11:30:04.755542 30323 net.cpp:84] Creating Layer relu5_1/dw
I0810 11:30:04.755545 30323 net.cpp:406] relu5_1/dw <- conv5_1/dw
I0810 11:30:04.755550 30323 net.cpp:367] relu5_1/dw -> conv5_1/dw (in-place)
I0810 11:30:04.756134 30323 net.cpp:122] Setting up relu5_1/dw
I0810 11:30:04.756146 30323 net.cpp:129] Top shape: 64 512 14 14 (6422528)
I0810 11:30:04.756150 30323 net.cpp:137] Memory required for data: 4097573120
I0810 11:30:04.756155 30323 layer_factory.hpp:77] Creating layer conv5_1/sep
I0810 11:30:04.756165 30323 net.cpp:84] Creating Layer conv5_1/sep
I0810 11:30:04.756168 30323 net.cpp:406] conv5_1/sep <- conv5_1/dw
I0810 11:30:04.756175 30323 net.cpp:380] conv5_1/sep -> conv5_1/sep
I0810 11:30:04.761029 30323 net.cpp:122] Setting up conv5_1/sep
I0810 11:30:04.761046 30323 net.cpp:129] Top shape: 64 512 14 14 (6422528)
I0810 11:30:04.761050 30323 net.cpp:137] Memory required for data: 4123263232
I0810 11:30:04.761056 30323 layer_factory.hpp:77] Creating layer conv5_1/sep/bn
I0810 11:30:04.761065 30323 net.cpp:84] Creating Layer conv5_1/sep/bn
I0810 11:30:04.761068 30323 net.cpp:406] conv5_1/sep/bn <- conv5_1/sep
I0810 11:30:04.761077 30323 net.cpp:367] conv5_1/sep/bn -> conv5_1/sep (in-place)
I0810 11:30:04.761298 30323 net.cpp:122] Setting up conv5_1/sep/bn
I0810 11:30:04.761307 30323 net.cpp:129] Top shape: 64 512 14 14 (6422528)
I0810 11:30:04.761310 30323 net.cpp:137] Memory required for data: 4148953344
I0810 11:30:04.761317 30323 layer_factory.hpp:77] Creating layer conv5_1/sep/scale
I0810 11:30:04.761324 30323 net.cpp:84] Creating Layer conv5_1/sep/scale
I0810 11:30:04.761328 30323 net.cpp:406] conv5_1/sep/scale <- conv5_1/sep
I0810 11:30:04.761335 30323 net.cpp:367] conv5_1/sep/scale -> conv5_1/sep (in-place)
I0810 11:30:04.761373 30323 layer_factory.hpp:77] Creating layer conv5_1/sep/scale
I0810 11:30:04.761498 30323 net.cpp:122] Setting up conv5_1/sep/scale
I0810 11:30:04.761507 30323 net.cpp:129] Top shape: 64 512 14 14 (6422528)
I0810 11:30:04.761512 30323 net.cpp:137] Memory required for data: 4174643456
I0810 11:30:04.761517 30323 layer_factory.hpp:77] Creating layer relu5_1/sep
I0810 11:30:04.761523 30323 net.cpp:84] Creating Layer relu5_1/sep
I0810 11:30:04.761526 30323 net.cpp:406] relu5_1/sep <- conv5_1/sep
I0810 11:30:04.761531 30323 net.cpp:367] relu5_1/sep -> conv5_1/sep (in-place)
I0810 11:30:04.762131 30323 net.cpp:122] Setting up relu5_1/sep
I0810 11:30:04.762142 30323 net.cpp:129] Top shape: 64 512 14 14 (6422528)
I0810 11:30:04.762146 30323 net.cpp:137] Memory required for data: 4200333568
I0810 11:30:04.762151 30323 layer_factory.hpp:77] Creating layer conv5_2/dw
I0810 11:30:04.762161 30323 net.cpp:84] Creating Layer conv5_2/dw
I0810 11:30:04.762164 30323 net.cpp:406] conv5_2/dw <- conv5_1/sep
I0810 11:30:04.762177 30323 net.cpp:380] conv5_2/dw -> conv5_2/dw
I0810 11:30:04.762441 30323 net.cpp:122] Setting up conv5_2/dw
I0810 11:30:04.762449 30323 net.cpp:129] Top shape: 64 512 14 14 (6422528)
I0810 11:30:04.762452 30323 net.cpp:137] Memory required for data: 4226023680
I0810 11:30:04.762459 30323 layer_factory.hpp:77] Creating layer conv5_2/dw/bn
I0810 11:30:04.762465 30323 net.cpp:84] Creating Layer conv5_2/dw/bn
I0810 11:30:04.762470 30323 net.cpp:406] conv5_2/dw/bn <- conv5_2/dw
I0810 11:30:04.762475 30323 net.cpp:367] conv5_2/dw/bn -> conv5_2/dw (in-place)
I0810 11:30:04.762683 30323 net.cpp:122] Setting up conv5_2/dw/bn
I0810 11:30:04.762691 30323 net.cpp:129] Top shape: 64 512 14 14 (6422528)
I0810 11:30:04.762694 30323 net.cpp:137] Memory required for data: 4251713792
I0810 11:30:04.762701 30323 layer_factory.hpp:77] Creating layer conv5_2/dw/scale
I0810 11:30:04.762709 30323 net.cpp:84] Creating Layer conv5_2/dw/scale
I0810 11:30:04.762713 30323 net.cpp:406] conv5_2/dw/scale <- conv5_2/dw
I0810 11:30:04.762718 30323 net.cpp:367] conv5_2/dw/scale -> conv5_2/dw (in-place)
I0810 11:30:04.762758 30323 layer_factory.hpp:77] Creating layer conv5_2/dw/scale
I0810 11:30:04.762882 30323 net.cpp:122] Setting up conv5_2/dw/scale
I0810 11:30:04.762889 30323 net.cpp:129] Top shape: 64 512 14 14 (6422528)
I0810 11:30:04.762892 30323 net.cpp:137] Memory required for data: 4277403904
I0810 11:30:04.762898 30323 layer_factory.hpp:77] Creating layer relu5_2/dw
I0810 11:30:04.762912 30323 net.cpp:84] Creating Layer relu5_2/dw
I0810 11:30:04.762917 30323 net.cpp:406] relu5_2/dw <- conv5_2/dw
I0810 11:30:04.762922 30323 net.cpp:367] relu5_2/dw -> conv5_2/dw (in-place)
I0810 11:30:04.763713 30323 net.cpp:122] Setting up relu5_2/dw
I0810 11:30:04.763730 30323 net.cpp:129] Top shape: 64 512 14 14 (6422528)
I0810 11:30:04.763733 30323 net.cpp:137] Memory required for data: 4303094016
I0810 11:30:04.763738 30323 layer_factory.hpp:77] Creating layer conv5_2/sep
I0810 11:30:04.763749 30323 net.cpp:84] Creating Layer conv5_2/sep
I0810 11:30:04.763753 30323 net.cpp:406] conv5_2/sep <- conv5_2/dw
I0810 11:30:04.763761 30323 net.cpp:380] conv5_2/sep -> conv5_2/sep
I0810 11:30:04.769454 30323 net.cpp:122] Setting up conv5_2/sep
I0810 11:30:04.769472 30323 net.cpp:129] Top shape: 64 512 14 14 (6422528)
I0810 11:30:04.769477 30323 net.cpp:137] Memory required for data: 4328784128
I0810 11:30:04.769484 30323 layer_factory.hpp:77] Creating layer conv5_2/sep/bn
I0810 11:30:04.769490 30323 net.cpp:84] Creating Layer conv5_2/sep/bn
I0810 11:30:04.769495 30323 net.cpp:406] conv5_2/sep/bn <- conv5_2/sep
I0810 11:30:04.769501 30323 net.cpp:367] conv5_2/sep/bn -> conv5_2/sep (in-place)
I0810 11:30:04.769731 30323 net.cpp:122] Setting up conv5_2/sep/bn
I0810 11:30:04.769739 30323 net.cpp:129] Top shape: 64 512 14 14 (6422528)
I0810 11:30:04.769743 30323 net.cpp:137] Memory required for data: 4354474240
I0810 11:30:04.769750 30323 layer_factory.hpp:77] Creating layer conv5_2/sep/scale
I0810 11:30:04.769759 30323 net.cpp:84] Creating Layer conv5_2/sep/scale
I0810 11:30:04.769763 30323 net.cpp:406] conv5_2/sep/scale <- conv5_2/sep
I0810 11:30:04.769769 30323 net.cpp:367] conv5_2/sep/scale -> conv5_2/sep (in-place)
I0810 11:30:04.769809 30323 layer_factory.hpp:77] Creating layer conv5_2/sep/scale
I0810 11:30:04.769944 30323 net.cpp:122] Setting up conv5_2/sep/scale
I0810 11:30:04.769953 30323 net.cpp:129] Top shape: 64 512 14 14 (6422528)
I0810 11:30:04.769955 30323 net.cpp:137] Memory required for data: 4380164352
I0810 11:30:04.769961 30323 layer_factory.hpp:77] Creating layer relu5_2/sep
I0810 11:30:04.769969 30323 net.cpp:84] Creating Layer relu5_2/sep
I0810 11:30:04.769973 30323 net.cpp:406] relu5_2/sep <- conv5_2/sep
I0810 11:30:04.769978 30323 net.cpp:367] relu5_2/sep -> conv5_2/sep (in-place)
I0810 11:30:04.770606 30323 net.cpp:122] Setting up relu5_2/sep
I0810 11:30:04.770615 30323 net.cpp:129] Top shape: 64 512 14 14 (6422528)
I0810 11:30:04.770619 30323 net.cpp:137] Memory required for data: 4405854464
I0810 11:30:04.770623 30323 layer_factory.hpp:77] Creating layer conv5_3/dw
I0810 11:30:04.770639 30323 net.cpp:84] Creating Layer conv5_3/dw
I0810 11:30:04.770644 30323 net.cpp:406] conv5_3/dw <- conv5_2/sep
I0810 11:30:04.770651 30323 net.cpp:380] conv5_3/dw -> conv5_3/dw
I0810 11:30:04.770912 30323 net.cpp:122] Setting up conv5_3/dw
I0810 11:30:04.770920 30323 net.cpp:129] Top shape: 64 512 14 14 (6422528)
I0810 11:30:04.770925 30323 net.cpp:137] Memory required for data: 4431544576
I0810 11:30:04.770929 30323 layer_factory.hpp:77] Creating layer conv5_3/dw/bn
I0810 11:30:04.770934 30323 net.cpp:84] Creating Layer conv5_3/dw/bn
I0810 11:30:04.770939 30323 net.cpp:406] conv5_3/dw/bn <- conv5_3/dw
I0810 11:30:04.770947 30323 net.cpp:367] conv5_3/dw/bn -> conv5_3/dw (in-place)
I0810 11:30:04.771155 30323 net.cpp:122] Setting up conv5_3/dw/bn
I0810 11:30:04.771162 30323 net.cpp:129] Top shape: 64 512 14 14 (6422528)
I0810 11:30:04.771167 30323 net.cpp:137] Memory required for data: 4457234688
I0810 11:30:04.771173 30323 layer_factory.hpp:77] Creating layer conv5_3/dw/scale
I0810 11:30:04.771178 30323 net.cpp:84] Creating Layer conv5_3/dw/scale
I0810 11:30:04.771183 30323 net.cpp:406] conv5_3/dw/scale <- conv5_3/dw
I0810 11:30:04.771188 30323 net.cpp:367] conv5_3/dw/scale -> conv5_3/dw (in-place)
I0810 11:30:04.771227 30323 layer_factory.hpp:77] Creating layer conv5_3/dw/scale
I0810 11:30:04.771353 30323 net.cpp:122] Setting up conv5_3/dw/scale
I0810 11:30:04.771361 30323 net.cpp:129] Top shape: 64 512 14 14 (6422528)
I0810 11:30:04.771364 30323 net.cpp:137] Memory required for data: 4482924800
I0810 11:30:04.771370 30323 layer_factory.hpp:77] Creating layer relu5_3/dw
I0810 11:30:04.771375 30323 net.cpp:84] Creating Layer relu5_3/dw
I0810 11:30:04.771379 30323 net.cpp:406] relu5_3/dw <- conv5_3/dw
I0810 11:30:04.771384 30323 net.cpp:367] relu5_3/dw -> conv5_3/dw (in-place)
I0810 11:30:04.772178 30323 net.cpp:122] Setting up relu5_3/dw
I0810 11:30:04.772192 30323 net.cpp:129] Top shape: 64 512 14 14 (6422528)
I0810 11:30:04.772195 30323 net.cpp:137] Memory required for data: 4508614912
I0810 11:30:04.772200 30323 layer_factory.hpp:77] Creating layer conv5_3/sep
I0810 11:30:04.772212 30323 net.cpp:84] Creating Layer conv5_3/sep
I0810 11:30:04.772215 30323 net.cpp:406] conv5_3/sep <- conv5_3/dw
I0810 11:30:04.772223 30323 net.cpp:380] conv5_3/sep -> conv5_3/sep
I0810 11:30:04.776901 30323 net.cpp:122] Setting up conv5_3/sep
I0810 11:30:04.776916 30323 net.cpp:129] Top shape: 64 512 14 14 (6422528)
I0810 11:30:04.776921 30323 net.cpp:137] Memory required for data: 4534305024
I0810 11:30:04.776926 30323 layer_factory.hpp:77] Creating layer conv5_3/sep/bn
I0810 11:30:04.776935 30323 net.cpp:84] Creating Layer conv5_3/sep/bn
I0810 11:30:04.776940 30323 net.cpp:406] conv5_3/sep/bn <- conv5_3/sep
I0810 11:30:04.776947 30323 net.cpp:367] conv5_3/sep/bn -> conv5_3/sep (in-place)
I0810 11:30:04.777170 30323 net.cpp:122] Setting up conv5_3/sep/bn
I0810 11:30:04.777179 30323 net.cpp:129] Top shape: 64 512 14 14 (6422528)
I0810 11:30:04.777182 30323 net.cpp:137] Memory required for data: 4559995136
I0810 11:30:04.777189 30323 layer_factory.hpp:77] Creating layer conv5_3/sep/scale
I0810 11:30:04.777197 30323 net.cpp:84] Creating Layer conv5_3/sep/scale
I0810 11:30:04.777202 30323 net.cpp:406] conv5_3/sep/scale <- conv5_3/sep
I0810 11:30:04.777207 30323 net.cpp:367] conv5_3/sep/scale -> conv5_3/sep (in-place)
I0810 11:30:04.777248 30323 layer_factory.hpp:77] Creating layer conv5_3/sep/scale
I0810 11:30:04.777441 30323 net.cpp:122] Setting up conv5_3/sep/scale
I0810 11:30:04.777451 30323 net.cpp:129] Top shape: 64 512 14 14 (6422528)
I0810 11:30:04.777454 30323 net.cpp:137] Memory required for data: 4585685248
I0810 11:30:04.777459 30323 layer_factory.hpp:77] Creating layer relu5_3/sep
I0810 11:30:04.777467 30323 net.cpp:84] Creating Layer relu5_3/sep
I0810 11:30:04.777472 30323 net.cpp:406] relu5_3/sep <- conv5_3/sep
I0810 11:30:04.777477 30323 net.cpp:367] relu5_3/sep -> conv5_3/sep (in-place)
I0810 11:30:04.778095 30323 net.cpp:122] Setting up relu5_3/sep
I0810 11:30:04.778111 30323 net.cpp:129] Top shape: 64 512 14 14 (6422528)
I0810 11:30:04.778115 30323 net.cpp:137] Memory required for data: 4611375360
I0810 11:30:04.778120 30323 layer_factory.hpp:77] Creating layer conv5_4/dw
I0810 11:30:04.778129 30323 net.cpp:84] Creating Layer conv5_4/dw
I0810 11:30:04.778134 30323 net.cpp:406] conv5_4/dw <- conv5_3/sep
I0810 11:30:04.778142 30323 net.cpp:380] conv5_4/dw -> conv5_4/dw
I0810 11:30:04.778412 30323 net.cpp:122] Setting up conv5_4/dw
I0810 11:30:04.778420 30323 net.cpp:129] Top shape: 64 512 14 14 (6422528)
I0810 11:30:04.778424 30323 net.cpp:137] Memory required for data: 4637065472
I0810 11:30:04.778429 30323 layer_factory.hpp:77] Creating layer conv5_4/dw/bn
I0810 11:30:04.778435 30323 net.cpp:84] Creating Layer conv5_4/dw/bn
I0810 11:30:04.778439 30323 net.cpp:406] conv5_4/dw/bn <- conv5_4/dw
I0810 11:30:04.778447 30323 net.cpp:367] conv5_4/dw/bn -> conv5_4/dw (in-place)
I0810 11:30:04.778661 30323 net.cpp:122] Setting up conv5_4/dw/bn
I0810 11:30:04.778667 30323 net.cpp:129] Top shape: 64 512 14 14 (6422528)
I0810 11:30:04.778671 30323 net.cpp:137] Memory required for data: 4662755584
I0810 11:30:04.778677 30323 layer_factory.hpp:77] Creating layer conv5_4/dw/scale
I0810 11:30:04.778684 30323 net.cpp:84] Creating Layer conv5_4/dw/scale
I0810 11:30:04.778688 30323 net.cpp:406] conv5_4/dw/scale <- conv5_4/dw
I0810 11:30:04.778693 30323 net.cpp:367] conv5_4/dw/scale -> conv5_4/dw (in-place)
I0810 11:30:04.778733 30323 layer_factory.hpp:77] Creating layer conv5_4/dw/scale
I0810 11:30:04.778867 30323 net.cpp:122] Setting up conv5_4/dw/scale
I0810 11:30:04.778874 30323 net.cpp:129] Top shape: 64 512 14 14 (6422528)
I0810 11:30:04.778878 30323 net.cpp:137] Memory required for data: 4688445696
I0810 11:30:04.778883 30323 layer_factory.hpp:77] Creating layer relu5_4/dw
I0810 11:30:04.778889 30323 net.cpp:84] Creating Layer relu5_4/dw
I0810 11:30:04.778893 30323 net.cpp:406] relu5_4/dw <- conv5_4/dw
I0810 11:30:04.778898 30323 net.cpp:367] relu5_4/dw -> conv5_4/dw (in-place)
I0810 11:30:04.781114 30323 net.cpp:122] Setting up relu5_4/dw
I0810 11:30:04.781128 30323 net.cpp:129] Top shape: 64 512 14 14 (6422528)
I0810 11:30:04.781132 30323 net.cpp:137] Memory required for data: 4714135808
I0810 11:30:04.781136 30323 layer_factory.hpp:77] Creating layer conv5_4/sep
I0810 11:30:04.781147 30323 net.cpp:84] Creating Layer conv5_4/sep
I0810 11:30:04.781152 30323 net.cpp:406] conv5_4/sep <- conv5_4/dw
I0810 11:30:04.781160 30323 net.cpp:380] conv5_4/sep -> conv5_4/sep
I0810 11:30:04.786859 30323 net.cpp:122] Setting up conv5_4/sep
I0810 11:30:04.786873 30323 net.cpp:129] Top shape: 64 512 14 14 (6422528)
I0810 11:30:04.786878 30323 net.cpp:137] Memory required for data: 4739825920
I0810 11:30:04.786885 30323 layer_factory.hpp:77] Creating layer conv5_4/sep/bn
I0810 11:30:04.786893 30323 net.cpp:84] Creating Layer conv5_4/sep/bn
I0810 11:30:04.786897 30323 net.cpp:406] conv5_4/sep/bn <- conv5_4/sep
I0810 11:30:04.786903 30323 net.cpp:367] conv5_4/sep/bn -> conv5_4/sep (in-place)
I0810 11:30:04.787127 30323 net.cpp:122] Setting up conv5_4/sep/bn
I0810 11:30:04.787134 30323 net.cpp:129] Top shape: 64 512 14 14 (6422528)
I0810 11:30:04.787137 30323 net.cpp:137] Memory required for data: 4765516032
I0810 11:30:04.787145 30323 layer_factory.hpp:77] Creating layer conv5_4/sep/scale
I0810 11:30:04.787153 30323 net.cpp:84] Creating Layer conv5_4/sep/scale
I0810 11:30:04.787156 30323 net.cpp:406] conv5_4/sep/scale <- conv5_4/sep
I0810 11:30:04.787163 30323 net.cpp:367] conv5_4/sep/scale -> conv5_4/sep (in-place)
I0810 11:30:04.787201 30323 layer_factory.hpp:77] Creating layer conv5_4/sep/scale
I0810 11:30:04.787333 30323 net.cpp:122] Setting up conv5_4/sep/scale
I0810 11:30:04.787341 30323 net.cpp:129] Top shape: 64 512 14 14 (6422528)
I0810 11:30:04.787344 30323 net.cpp:137] Memory required for data: 4791206144
I0810 11:30:04.787350 30323 layer_factory.hpp:77] Creating layer relu5_4/sep
I0810 11:30:04.787356 30323 net.cpp:84] Creating Layer relu5_4/sep
I0810 11:30:04.787359 30323 net.cpp:406] relu5_4/sep <- conv5_4/sep
I0810 11:30:04.787371 30323 net.cpp:367] relu5_4/sep -> conv5_4/sep (in-place)
I0810 11:30:04.791219 30323 net.cpp:122] Setting up relu5_4/sep
I0810 11:30:04.791236 30323 net.cpp:129] Top shape: 64 512 14 14 (6422528)
I0810 11:30:04.791240 30323 net.cpp:137] Memory required for data: 4816896256
I0810 11:30:04.791244 30323 layer_factory.hpp:77] Creating layer conv5_5/dw
I0810 11:30:04.791256 30323 net.cpp:84] Creating Layer conv5_5/dw
I0810 11:30:04.791261 30323 net.cpp:406] conv5_5/dw <- conv5_4/sep
I0810 11:30:04.791267 30323 net.cpp:380] conv5_5/dw -> conv5_5/dw
I0810 11:30:04.791538 30323 net.cpp:122] Setting up conv5_5/dw
I0810 11:30:04.791548 30323 net.cpp:129] Top shape: 64 512 14 14 (6422528)
I0810 11:30:04.791551 30323 net.cpp:137] Memory required for data: 4842586368
I0810 11:30:04.791556 30323 layer_factory.hpp:77] Creating layer conv5_5/dw/bn
I0810 11:30:04.791563 30323 net.cpp:84] Creating Layer conv5_5/dw/bn
I0810 11:30:04.791566 30323 net.cpp:406] conv5_5/dw/bn <- conv5_5/dw
I0810 11:30:04.791573 30323 net.cpp:367] conv5_5/dw/bn -> conv5_5/dw (in-place)
I0810 11:30:04.791785 30323 net.cpp:122] Setting up conv5_5/dw/bn
I0810 11:30:04.791792 30323 net.cpp:129] Top shape: 64 512 14 14 (6422528)
I0810 11:30:04.791796 30323 net.cpp:137] Memory required for data: 4868276480
I0810 11:30:04.791820 30323 layer_factory.hpp:77] Creating layer conv5_5/dw/scale
I0810 11:30:04.791826 30323 net.cpp:84] Creating Layer conv5_5/dw/scale
I0810 11:30:04.791831 30323 net.cpp:406] conv5_5/dw/scale <- conv5_5/dw
I0810 11:30:04.791838 30323 net.cpp:367] conv5_5/dw/scale -> conv5_5/dw (in-place)
I0810 11:30:04.791877 30323 layer_factory.hpp:77] Creating layer conv5_5/dw/scale
I0810 11:30:04.792006 30323 net.cpp:122] Setting up conv5_5/dw/scale
I0810 11:30:04.792012 30323 net.cpp:129] Top shape: 64 512 14 14 (6422528)
I0810 11:30:04.792016 30323 net.cpp:137] Memory required for data: 4893966592
I0810 11:30:04.792022 30323 layer_factory.hpp:77] Creating layer relu5_5/dw
I0810 11:30:04.792027 30323 net.cpp:84] Creating Layer relu5_5/dw
I0810 11:30:04.792032 30323 net.cpp:406] relu5_5/dw <- conv5_5/dw
I0810 11:30:04.792042 30323 net.cpp:367] relu5_5/dw -> conv5_5/dw (in-place)
I0810 11:30:04.792838 30323 net.cpp:122] Setting up relu5_5/dw
I0810 11:30:04.792855 30323 net.cpp:129] Top shape: 64 512 14 14 (6422528)
I0810 11:30:04.792858 30323 net.cpp:137] Memory required for data: 4919656704
I0810 11:30:04.792862 30323 layer_factory.hpp:77] Creating layer conv5_5/sep
I0810 11:30:04.792873 30323 net.cpp:84] Creating Layer conv5_5/sep
I0810 11:30:04.792877 30323 net.cpp:406] conv5_5/sep <- conv5_5/dw
I0810 11:30:04.792884 30323 net.cpp:380] conv5_5/sep -> conv5_5/sep
I0810 11:30:04.797757 30323 net.cpp:122] Setting up conv5_5/sep
I0810 11:30:04.797782 30323 net.cpp:129] Top shape: 64 512 14 14 (6422528)
I0810 11:30:04.797786 30323 net.cpp:137] Memory required for data: 4945346816
I0810 11:30:04.797792 30323 layer_factory.hpp:77] Creating layer conv5_5/sep/bn
I0810 11:30:04.797801 30323 net.cpp:84] Creating Layer conv5_5/sep/bn
I0810 11:30:04.797806 30323 net.cpp:406] conv5_5/sep/bn <- conv5_5/sep
I0810 11:30:04.797814 30323 net.cpp:367] conv5_5/sep/bn -> conv5_5/sep (in-place)
I0810 11:30:04.798036 30323 net.cpp:122] Setting up conv5_5/sep/bn
I0810 11:30:04.798044 30323 net.cpp:129] Top shape: 64 512 14 14 (6422528)
I0810 11:30:04.798048 30323 net.cpp:137] Memory required for data: 4971036928
I0810 11:30:04.798055 30323 layer_factory.hpp:77] Creating layer conv5_5/sep/scale
I0810 11:30:04.798064 30323 net.cpp:84] Creating Layer conv5_5/sep/scale
I0810 11:30:04.798069 30323 net.cpp:406] conv5_5/sep/scale <- conv5_5/sep
I0810 11:30:04.798074 30323 net.cpp:367] conv5_5/sep/scale -> conv5_5/sep (in-place)
I0810 11:30:04.798116 30323 layer_factory.hpp:77] Creating layer conv5_5/sep/scale
I0810 11:30:04.798245 30323 net.cpp:122] Setting up conv5_5/sep/scale
I0810 11:30:04.798254 30323 net.cpp:129] Top shape: 64 512 14 14 (6422528)
I0810 11:30:04.798257 30323 net.cpp:137] Memory required for data: 4996727040
I0810 11:30:04.798264 30323 layer_factory.hpp:77] Creating layer relu5_5/sep
I0810 11:30:04.798274 30323 net.cpp:84] Creating Layer relu5_5/sep
I0810 11:30:04.798279 30323 net.cpp:406] relu5_5/sep <- conv5_5/sep
I0810 11:30:04.798285 30323 net.cpp:367] relu5_5/sep -> conv5_5/sep (in-place)
I0810 11:30:04.799077 30323 net.cpp:122] Setting up relu5_5/sep
I0810 11:30:04.799091 30323 net.cpp:129] Top shape: 64 512 14 14 (6422528)
I0810 11:30:04.799095 30323 net.cpp:137] Memory required for data: 5022417152
I0810 11:30:04.799099 30323 layer_factory.hpp:77] Creating layer conv5_6/dw
I0810 11:30:04.799110 30323 net.cpp:84] Creating Layer conv5_6/dw
I0810 11:30:04.799115 30323 net.cpp:406] conv5_6/dw <- conv5_5/sep
I0810 11:30:04.799123 30323 net.cpp:380] conv5_6/dw -> conv5_6/dw
I0810 11:30:04.799391 30323 net.cpp:122] Setting up conv5_6/dw
I0810 11:30:04.799399 30323 net.cpp:129] Top shape: 64 512 7 7 (1605632)
I0810 11:30:04.799402 30323 net.cpp:137] Memory required for data: 5028839680
I0810 11:30:04.799408 30323 layer_factory.hpp:77] Creating layer conv5_6/dw/bn
I0810 11:30:04.799417 30323 net.cpp:84] Creating Layer conv5_6/dw/bn
I0810 11:30:04.799420 30323 net.cpp:406] conv5_6/dw/bn <- conv5_6/dw
I0810 11:30:04.799425 30323 net.cpp:367] conv5_6/dw/bn -> conv5_6/dw (in-place)
I0810 11:30:04.799649 30323 net.cpp:122] Setting up conv5_6/dw/bn
I0810 11:30:04.799655 30323 net.cpp:129] Top shape: 64 512 7 7 (1605632)
I0810 11:30:04.799659 30323 net.cpp:137] Memory required for data: 5035262208
I0810 11:30:04.799666 30323 layer_factory.hpp:77] Creating layer conv5_6/dw/scale
I0810 11:30:04.799674 30323 net.cpp:84] Creating Layer conv5_6/dw/scale
I0810 11:30:04.799677 30323 net.cpp:406] conv5_6/dw/scale <- conv5_6/dw
I0810 11:30:04.799685 30323 net.cpp:367] conv5_6/dw/scale -> conv5_6/dw (in-place)
I0810 11:30:04.799723 30323 layer_factory.hpp:77] Creating layer conv5_6/dw/scale
I0810 11:30:04.799859 30323 net.cpp:122] Setting up conv5_6/dw/scale
I0810 11:30:04.799865 30323 net.cpp:129] Top shape: 64 512 7 7 (1605632)
I0810 11:30:04.799870 30323 net.cpp:137] Memory required for data: 5041684736
I0810 11:30:04.799875 30323 layer_factory.hpp:77] Creating layer relu5_6/dw
I0810 11:30:04.799880 30323 net.cpp:84] Creating Layer relu5_6/dw
I0810 11:30:04.799885 30323 net.cpp:406] relu5_6/dw <- conv5_6/dw
I0810 11:30:04.799891 30323 net.cpp:367] relu5_6/dw -> conv5_6/dw (in-place)
I0810 11:30:04.800492 30323 net.cpp:122] Setting up relu5_6/dw
I0810 11:30:04.800503 30323 net.cpp:129] Top shape: 64 512 7 7 (1605632)
I0810 11:30:04.800505 30323 net.cpp:137] Memory required for data: 5048107264
I0810 11:30:04.800509 30323 layer_factory.hpp:77] Creating layer conv5_6/sep
I0810 11:30:04.800519 30323 net.cpp:84] Creating Layer conv5_6/sep
I0810 11:30:04.800524 30323 net.cpp:406] conv5_6/sep <- conv5_6/dw
I0810 11:30:04.800530 30323 net.cpp:380] conv5_6/sep -> conv5_6/sep
I0810 11:30:04.808723 30323 net.cpp:122] Setting up conv5_6/sep
I0810 11:30:04.808739 30323 net.cpp:129] Top shape: 64 1024 7 7 (3211264)
I0810 11:30:04.808743 30323 net.cpp:137] Memory required for data: 5060952320
I0810 11:30:04.808749 30323 layer_factory.hpp:77] Creating layer conv5_6/sep/bn
I0810 11:30:04.808758 30323 net.cpp:84] Creating Layer conv5_6/sep/bn
I0810 11:30:04.808763 30323 net.cpp:406] conv5_6/sep/bn <- conv5_6/sep
I0810 11:30:04.808771 30323 net.cpp:367] conv5_6/sep/bn -> conv5_6/sep (in-place)
I0810 11:30:04.809000 30323 net.cpp:122] Setting up conv5_6/sep/bn
I0810 11:30:04.809008 30323 net.cpp:129] Top shape: 64 1024 7 7 (3211264)
I0810 11:30:04.809011 30323 net.cpp:137] Memory required for data: 5073797376
I0810 11:30:04.809020 30323 layer_factory.hpp:77] Creating layer conv5_6/sep/scale
I0810 11:30:04.809026 30323 net.cpp:84] Creating Layer conv5_6/sep/scale
I0810 11:30:04.809031 30323 net.cpp:406] conv5_6/sep/scale <- conv5_6/sep
I0810 11:30:04.809036 30323 net.cpp:367] conv5_6/sep/scale -> conv5_6/sep (in-place)
I0810 11:30:04.809078 30323 layer_factory.hpp:77] Creating layer conv5_6/sep/scale
I0810 11:30:04.809214 30323 net.cpp:122] Setting up conv5_6/sep/scale
I0810 11:30:04.809226 30323 net.cpp:129] Top shape: 64 1024 7 7 (3211264)
I0810 11:30:04.809231 30323 net.cpp:137] Memory required for data: 5086642432
I0810 11:30:04.809237 30323 layer_factory.hpp:77] Creating layer relu5_6/sep
I0810 11:30:04.809244 30323 net.cpp:84] Creating Layer relu5_6/sep
I0810 11:30:04.809248 30323 net.cpp:406] relu5_6/sep <- conv5_6/sep
I0810 11:30:04.809253 30323 net.cpp:367] relu5_6/sep -> conv5_6/sep (in-place)
I0810 11:30:04.810102 30323 net.cpp:122] Setting up relu5_6/sep
I0810 11:30:04.810117 30323 net.cpp:129] Top shape: 64 1024 7 7 (3211264)
I0810 11:30:04.810122 30323 net.cpp:137] Memory required for data: 5099487488
I0810 11:30:04.810125 30323 layer_factory.hpp:77] Creating layer conv6/dw
I0810 11:30:04.810137 30323 net.cpp:84] Creating Layer conv6/dw
I0810 11:30:04.810142 30323 net.cpp:406] conv6/dw <- conv5_6/sep
I0810 11:30:04.810150 30323 net.cpp:380] conv6/dw -> conv6/dw
I0810 11:30:04.810465 30323 net.cpp:122] Setting up conv6/dw
I0810 11:30:04.810474 30323 net.cpp:129] Top shape: 64 1024 7 7 (3211264)
I0810 11:30:04.810478 30323 net.cpp:137] Memory required for data: 5112332544
I0810 11:30:04.810483 30323 layer_factory.hpp:77] Creating layer conv6/dw/bn
I0810 11:30:04.810489 30323 net.cpp:84] Creating Layer conv6/dw/bn
I0810 11:30:04.810493 30323 net.cpp:406] conv6/dw/bn <- conv6/dw
I0810 11:30:04.810499 30323 net.cpp:367] conv6/dw/bn -> conv6/dw (in-place)
I0810 11:30:04.810721 30323 net.cpp:122] Setting up conv6/dw/bn
I0810 11:30:04.810729 30323 net.cpp:129] Top shape: 64 1024 7 7 (3211264)
I0810 11:30:04.810734 30323 net.cpp:137] Memory required for data: 5125177600
I0810 11:30:04.810740 30323 layer_factory.hpp:77] Creating layer conv6/dw/scale
I0810 11:30:04.810746 30323 net.cpp:84] Creating Layer conv6/dw/scale
I0810 11:30:04.810750 30323 net.cpp:406] conv6/dw/scale <- conv6/dw
I0810 11:30:04.810756 30323 net.cpp:367] conv6/dw/scale -> conv6/dw (in-place)
I0810 11:30:04.810799 30323 layer_factory.hpp:77] Creating layer conv6/dw/scale
I0810 11:30:04.810932 30323 net.cpp:122] Setting up conv6/dw/scale
I0810 11:30:04.810940 30323 net.cpp:129] Top shape: 64 1024 7 7 (3211264)
I0810 11:30:04.810943 30323 net.cpp:137] Memory required for data: 5138022656
I0810 11:30:04.810950 30323 layer_factory.hpp:77] Creating layer relu6/dw
I0810 11:30:04.810955 30323 net.cpp:84] Creating Layer relu6/dw
I0810 11:30:04.810958 30323 net.cpp:406] relu6/dw <- conv6/dw
I0810 11:30:04.810966 30323 net.cpp:367] relu6/dw -> conv6/dw (in-place)
I0810 11:30:04.811564 30323 net.cpp:122] Setting up relu6/dw
I0810 11:30:04.811574 30323 net.cpp:129] Top shape: 64 1024 7 7 (3211264)
I0810 11:30:04.811578 30323 net.cpp:137] Memory required for data: 5150867712
I0810 11:30:04.811583 30323 layer_factory.hpp:77] Creating layer conv6/sep
I0810 11:30:04.811592 30323 net.cpp:84] Creating Layer conv6/sep
I0810 11:30:04.811596 30323 net.cpp:406] conv6/sep <- conv6/dw
I0810 11:30:04.811604 30323 net.cpp:380] conv6/sep -> conv6/sep
I0810 11:30:04.825525 30323 net.cpp:122] Setting up conv6/sep
I0810 11:30:04.825542 30323 net.cpp:129] Top shape: 64 1024 7 7 (3211264)
I0810 11:30:04.825546 30323 net.cpp:137] Memory required for data: 5163712768
I0810 11:30:04.825553 30323 layer_factory.hpp:77] Creating layer conv6/sep/bn
I0810 11:30:04.825561 30323 net.cpp:84] Creating Layer conv6/sep/bn
I0810 11:30:04.825564 30323 net.cpp:406] conv6/sep/bn <- conv6/sep
I0810 11:30:04.825573 30323 net.cpp:367] conv6/sep/bn -> conv6/sep (in-place)
I0810 11:30:04.825837 30323 net.cpp:122] Setting up conv6/sep/bn
I0810 11:30:04.825846 30323 net.cpp:129] Top shape: 64 1024 7 7 (3211264)
I0810 11:30:04.825850 30323 net.cpp:137] Memory required for data: 5176557824
I0810 11:30:04.825857 30323 layer_factory.hpp:77] Creating layer conv6/sep/scale
I0810 11:30:04.825865 30323 net.cpp:84] Creating Layer conv6/sep/scale
I0810 11:30:04.825870 30323 net.cpp:406] conv6/sep/scale <- conv6/sep
I0810 11:30:04.825875 30323 net.cpp:367] conv6/sep/scale -> conv6/sep (in-place)
I0810 11:30:04.825932 30323 layer_factory.hpp:77] Creating layer conv6/sep/scale
I0810 11:30:04.826066 30323 net.cpp:122] Setting up conv6/sep/scale
I0810 11:30:04.826079 30323 net.cpp:129] Top shape: 64 1024 7 7 (3211264)
I0810 11:30:04.826083 30323 net.cpp:137] Memory required for data: 5189402880
I0810 11:30:04.826089 30323 layer_factory.hpp:77] Creating layer relu6/sep
I0810 11:30:04.826095 30323 net.cpp:84] Creating Layer relu6/sep
I0810 11:30:04.826099 30323 net.cpp:406] relu6/sep <- conv6/sep
I0810 11:30:04.826104 30323 net.cpp:367] relu6/sep -> conv6/sep (in-place)
I0810 11:30:04.826902 30323 net.cpp:122] Setting up relu6/sep
I0810 11:30:04.826916 30323 net.cpp:129] Top shape: 64 1024 7 7 (3211264)
I0810 11:30:04.826920 30323 net.cpp:137] Memory required for data: 5202247936
I0810 11:30:04.826925 30323 layer_factory.hpp:77] Creating layer pool6
I0810 11:30:04.826936 30323 net.cpp:84] Creating Layer pool6
I0810 11:30:04.826939 30323 net.cpp:406] pool6 <- conv6/sep
I0810 11:30:04.826946 30323 net.cpp:380] pool6 -> pool6
I0810 11:30:04.827565 30323 net.cpp:122] Setting up pool6
I0810 11:30:04.827576 30323 net.cpp:129] Top shape: 64 1024 1 1 (65536)
I0810 11:30:04.827580 30323 net.cpp:137] Memory required for data: 5202510080
I0810 11:30:04.827584 30323 layer_factory.hpp:77] Creating layer myfc7
I0810 11:30:04.827594 30323 net.cpp:84] Creating Layer myfc7
I0810 11:30:04.827600 30323 net.cpp:406] myfc7 <- pool6
I0810 11:30:04.827607 30323 net.cpp:380] myfc7 -> myfc7
I0810 11:30:04.830090 30323 net.cpp:122] Setting up myfc7
I0810 11:30:04.830106 30323 net.cpp:129] Top shape: 64 6 1 1 (384)
I0810 11:30:04.830109 30323 net.cpp:137] Memory required for data: 5202511616
I0810 11:30:04.830116 30323 layer_factory.hpp:77] Creating layer loss
I0810 11:30:04.830126 30323 net.cpp:84] Creating Layer loss
I0810 11:30:04.830129 30323 net.cpp:406] loss <- myfc7
I0810 11:30:04.830134 30323 net.cpp:406] loss <- label
I0810 11:30:04.830139 30323 net.cpp:380] loss -> loss
I0810 11:30:04.830148 30323 layer_factory.hpp:77] Creating layer loss
…
I0810 11:30:04.833241 30323 net.cpp:51] Initializing net from parameters: 
name: "MOBILENET"
state {
  phase: TEST
}
layer {
  name: "data_test"
  type: "ImageData"
  top: "data"
  top: "label"
  include {
    phase: TEST
  }
  transform_param {
    scale: 0.00390625
    mirror: true
    crop_size: 224
    mean_value: 112.24
    mean_value: 115.46
    mean_value: 117.84
  }
  image_data_param {
    source: "/home/liuyp/liu/keras_mobilenet/data3/test_txt.txt"
    batch_size: 32
    shuffle: true
    new_height: 224
    new_width: 224
    root_folder: "/home/liuyp/liu/keras_mobilenet/data3/validation"
  }
}
layer {
  name: "conv1"
  type: "Convolution"
  bottom: "data"
  top: "conv1"
  param {
    lr_mult: 1
    decay_mult: 1
  }
  convolution_param {
    num_output: 32
    bias_term: false
    pad: 1
    kernel_size: 3
    stride: 2
    weight_filler {
      type: "msra"
    }
  }
}
layer {
  name: "conv1/bn"
  type: "BatchNorm"
  bottom: "conv1"
  top: "conv1"
  param {
    lr_mult: 0
    decay_mult: 0
  }
  param {
    lr_mult: 0
    decay_mult: 0
  }
  param {
    lr_mult: 0
    decay_mult: 0
  }
}
layer {
  name: "conv1/scale"
  type: "Scale"
  bottom: "conv1"
  top: "conv1"
  param {
    lr_mult: 0
    decay_mult: 0
  }
  param {
    lr_mult: 0
    decay_mult: 0
  }
  scale_param {
    filler {
      value: 0
    }
    bias_term: true
    bias_filler {
      value: 0
    }
  }
}
layer {
  name: "relu1"
  type: "ReLU"
  bottom: "conv1"
  top: "conv1"
}
layer {
  name: "conv2_1/dw"
  type: "Convolution"
  bottom: "conv1"
  top: "conv2_1/dw"
  param {
    lr_mult: 1
    decay_mult: 1
  }
  convolution_param {
    num_output: 32
    bias_term: false
    pad: 1
    kernel_size: 3
    group: 32
    stride: 1
    weight_filler {
      type: "msra"
    }
    engine: CAFFE
  }
}
layer {
  name: "conv2_1/dw/bn"
  type: "BatchNorm"
  bottom: "conv2_1/dw"
  top: "conv2_1/dw"
  param {
    lr_mult: 0
    decay_mult: 0
  }
  param {
    lr_mult: 0
    decay_mult: 0
  }
  param {
    lr_mult: 0
    decay_mult: 0
  }
}
layer {
  name: "conv2_1/dw/scale"
  type: "Scale"
  bottom: "conv2_1/dw"
  top: "conv2_1/dw"
  param {
    lr_mult: 1
    decay_mult: 0
  }
  param {
    lr_mult: 1
    decay_mult: 0
  }
  scale_param {
    filler {
      value: 1
    }
    bias_term: true
    bias_filler {
      value: 0
    }
  }
}
layer {
  name: "relu2_1/dw"
  type: "ReLU"
  bottom: "conv2_1/dw"
  top: "conv2_1/dw"
}
layer {
  name: "conv2_1/sep"
  type: "Convolution"
  bottom: "conv2_1/dw"
  top: "conv2_1/sep"
  param {
    lr_mult: 1
    decay_mult: 1
  }
  convolution_param {
    num_output: 64
    bias_term: false
    pad: 0
    kernel_size: 1
    stride: 1
    weight_filler {
      type: "msra"
    }
  }
}
layer {
  name: "conv2_1/sep/bn"
  type: "BatchNorm"
  bottom: "conv2_1/sep"
  top: "conv2_1/sep"
  param {
    lr_mult: 0
    decay_mult: 0
  }
  param {
    lr_mult: 0
    decay_mult: 0
  }
  param {
    lr_mult: 0
    decay_mult: 0
  }
}
layer {
  name: "conv2_1/sep/scale"
  type: "Scale"
  bottom: "conv2_1/sep"
  top: "conv2_1/sep"
  param {
    lr_mult: 0
    decay_mult: 0
  }
  param {
    lr_mult: 0
    decay_mult: 0
  }
  scale_param {
    filler {
      value: 0
    }
    bias_term: true
    bias_filler {
      value: 0
    }
  }
}
layer {
  name: "relu2_1/sep"
  type: "ReLU"
  bottom: "conv2_1/sep"
  top: "conv2_1/sep"
}
layer {
  name: "conv2_2/dw"
  type: "Convolution"
  bottom: "conv2_1/sep"
  top: "conv2_2/dw"
  param {
    lr_mult: 1
    decay_mult: 1
  }
  convolution_param {
    num_output: 64
    bias_term: false
    pad: 1
    kernel_size: 3
    group: 64
    stride: 2
    weight_filler {
      type: "msra"
    }
    engine: CAFFE
  }
}
layer {
  name: "conv2_2/dw/bn"
  type: "BatchNorm"
  bottom: "conv2_2/dw"
  top: "conv2_2/dw"
  param {
    lr_mult: 0
    decay_mult: 0
  }
  param {
    lr_mult: 0
    decay_mult: 0
  }
  param {
    lr_mult: 0
    decay_mult: 0
  }
}
layer {
  name: "conv2_2/dw/scale"
  type: "Scale"
  bottom: "conv2_2/dw"
  top: "conv2_2/dw"
  param {
    lr_mult: 0
    decay_mult: 0
  }
  param {
    lr_mult: 0
    decay_mult: 0
  }
  scale_param {
    filler {
      value: 0
    }
    bias_term: true
    bias_filler {
      value: 0
    }
  }
}
layer {
  name: "relu2_2/dw"
  type: "ReLU"
  bottom: "conv2_2/dw"
  top: "conv2_2/dw"
}
layer {
  name: "conv2_2/sep"
  type: "Convolution"
  bottom: "conv2_2/dw"
  top: "conv2_2/sep"
  param {
    lr_mult: 1
    decay_mult: 1
  }
  convolution_param {
    num_output: 128
    bias_term: false
    pad: 0
    kernel_size: 1
    stride: 1
    weight_filler {
      type: "msra"
    }
  }
}
layer {
  name: "conv2_2/sep/bn"
  type: "BatchNorm"
  bottom: "conv2_2/sep"
  top: "conv2_2/sep"
  param {
    lr_mult: 0
    decay_mult: 0
  }
  param {
    lr_mult: 0
    decay_mult: 0
  }
  param {
    lr_mult: 0
    decay_mult: 0
  }
}
layer {
  name: "conv2_2/sep/scale"
  type: "Scale"
  bottom: "conv2_2/sep"
  top: "conv2_2/sep"
  param {
    lr_mult: 1
    decay_mult: 0
  }
  param {
    lr_mult: 1
    decay_mult: 0
  }
  scale_param {
    filler {
      value: 1
    }
    bias_term: true
    bias_filler {
      value: 0
    }
  }
}
layer {
  name: "relu2_2/sep"
  type: "ReLU"
  bottom: "conv2_2/sep"
  top: "conv2_2/sep"
}
layer {
  name: "conv3_1/dw"
  type: "Convolution"
  bottom: "conv2_2/sep"
  top: "conv3_1/dw"
  param {
    lr_mult: 1
    decay_mult: 1
  }
  convolution_param {
    num_output: 128
    bias_term: false
    pad: 1
    kernel_size: 3
    group: 128
    stride: 1
    weight_filler {
      type: "msra"
    }
    engine: CAFFE
  }
}
layer {
  name: "conv3_1/dw/bn"
  type: "BatchNorm"
  bottom: "conv3_1/dw"
  top: "conv3_1/dw"
  param {
    lr_mult: 0
    decay_mult: 0
  }
  param {
    lr_mult: 0
    decay_mult: 0
  }
  param {
    lr_mult: 0
    decay_mult: 0
  }
}
layer {
  name: "conv3_1/dw/scale"
  type: "Scale"
  bottom: "conv3_1/dw"
  top: "conv3_1/dw"
  param {
    lr_mult: 0
    decay_mult: 0
  }
  param {
    lr_mult: 0
    decay_mult: 0
  }
  scale_param {
    filler {
      value: 0
    }
    bias_term: true
    bias_filler {
      value: 0
    }
  }
}
layer {
  name: "relu3_1/dw"
  type: "ReLU"
  bottom: "conv3_1/dw"
  top: "conv3_1/dw"
}
layer {
  name: "conv3_1/sep"
  type: "Convolution"
  bottom: "conv3_1/dw"
  top: "conv3_1/sep"
  param {
    lr_mult: 1
    decay_mult: 1
  }
  convolution_param {
    num_output: 128
    bias_term: false
    pad: 0
    kernel_size: 1
    stride: 1
    weight_filler {
      type: "msra"
    }
  }
}
layer {
  name: "conv3_1/sep/bn"
  type: "BatchNorm"
  bottom: "conv3_1/sep"
  top: "conv3_1/sep"
  param {
    lr_mult: 0
    decay_mult: 0
  }
  param {
    lr_mult: 0
    decay_mult: 0
  }
  param {
    lr_mult: 0
    decay_mult: 0
  }
}
layer {
  name: "conv3_1/sep/scale"
  type: "Scale"
  bottom: "conv3_1/sep"
  top: "conv3_1/sep"
  param {
    lr_mult: 0
    decay_mult: 0
  }
  param {
    lr_mult: 0
    decay_mult: 0
  }
  scale_param {
    filler {
      value: 0
    }
    bias_term: true
    bias_filler {
      value: 0
    }
  }
}
layer {
  name: "relu3_1/sep"
  type: "ReLU"
  bottom: "conv3_1/sep"
  top: "conv3_1/sep"
}
layer {
  name: "conv3_2/dw"
  type: "Convolution"
  bottom: "conv3_1/sep"
  top: "conv3_2/dw"
  param {
    lr_mult: 1
    decay_mult: 1
  }
  convolution_param {
    num_output: 128
    bias_term: false
    pad: 1
    kernel_size: 3
    group: 128
    stride: 2
    weight_filler {
      type: "msra"
    }
    engine: CAFFE
  }
}
layer {
  name: "conv3_2/dw/bn"
  type: "BatchNorm"
  bottom: "conv3_2/dw"
  top: "conv3_2/dw"
  param {
    lr_mult: 0
    decay_mult: 0
  }
  param {
    lr_mult: 0
    decay_mult: 0
  }
  param {
    lr_mult: 0
    decay_mult: 0
  }
}
layer {
  name: "conv3_2/dw/scale"
  type: "Scale"
  bottom: "conv3_2/dw"
  top: "conv3_2/dw"
  param {
    lr_mult: 0
    decay_mult: 0
  }
  param {
    lr_mult: 0
    decay_mult: 0
  }
  scale_param {
    filler {
      value: 0
    }
    bias_term: true
    bias_filler {
      value: 0
    }
  }
}
layer {
  name: "relu3_2/dw"
  type: "ReLU"
  bottom: "conv3_2/dw"
  top: "conv3_2/dw"
}
layer {
  name: "conv3_2/sep"
  type: "Convolution"
  bottom: "conv3_2/dw"
  top: "conv3_2/sep"
  param {
    lr_mult: 1
    decay_mult: 1
  }
  convolution_param {
    num_output: 256
    bias_term: false
    pad: 0
    kernel_size: 1
    stride: 1
    weight_filler {
      type: "msra"
    }
  }
}
layer {
  name: "conv3_2/sep/bn"
  type: "BatchNorm"
  bottom: "conv3_2/sep"
  top: "conv3_2/sep"
  param {
    lr_mult: 0
    decay_mult: 0
  }
  param {
    lr_mult: 0
    decay_mult: 0
  }
  param {
    lr_mult: 0
    decay_mult: 0
  }
}
layer {
  name: "conv3_2/sep/scale"
  type: "Scale"
  bottom: "conv3_2/sep"
  top: "conv3_2/sep"
  param {
    lr_mult: 0
    decay_mult: 0
  }
  param {
    lr_mult: 0
    decay_mult: 0
  }
  scale_param {
    filler {
      value: 0
    }
    bias_term: true
    bias_filler {
      value: 0
    }
  }
}
layer {
  name: "relu3_2/sep"
  type: "ReLU"
  bottom: "conv3_2/sep"
  top: "conv3_2/sep"
}
layer {
  name: "conv4_1/dw"
  type: "Convolution"
  bottom: "conv3_2/sep"
  top: "conv4_1/dw"
  param {
    lr_mult: 1
    decay_mult: 1
  }
  convolution_param {
    num_output: 256
    bias_term: false
    pad: 1
    kernel_size: 3
    group: 256
    stride: 1
    weight_filler {
      type: "msra"
    }
    engine: CAFFE
  }
}
layer {
  name: "conv4_1/dw/bn"
  type: "BatchNorm"
  bottom: "conv4_1/dw"
  top: "conv4_1/dw"
  param {
    lr_mult: 0
    decay_mult: 0
  }
  param {
    lr_mult: 0
    decay_mult: 0
  }
  param {
    lr_mult: 0
    decay_mult: 0
  }
}
layer {
  name: "conv4_1/dw/scale"
  type: "Scale"
  bottom: "conv4_1/dw"
  top: "conv4_1/dw"
  param {
    lr_mult: 0
    decay_mult: 0
  }
  param {
    lr_mult: 0
    decay_mult: 0
  }
  scale_param {
    filler {
      value: 0
    }
    bias_term: true
    bias_filler {
      value: 0
    }
  }
}
layer {
  name: "relu4_1/dw"
  type: "ReLU"
  bottom: "conv4_1/dw"
  top: "conv4_1/dw"
}
layer {
  name: "conv4_1/sep"
  type: "Convolution"
  bottom: "conv4_1/dw"
  top: "conv4_1/sep"
  param {
    lr_mult: 1
    decay_mult: 1
  }
  convolution_param {
    num_output: 256
    bias_term: false
    pad: 0
    kernel_size: 1
    stride: 1
    weight_filler {
      type: "msra"
    }
  }
}
layer {
  name: "conv4_1/sep/bn"
  type: "BatchNorm"
  bottom: "conv4_1/sep"
  top: "conv4_1/sep"
  param {
    lr_mult: 0
    decay_mult: 0
  }
  param {
    lr_mult: 0
    decay_mult: 0
  }
  param {
    lr_mult: 0
    decay_mult: 0
  }
}
layer {
  name: "conv4_1/sep/scale"
  type: "Scale"
  bottom: "conv4_1/sep"
  top: "conv4_1/sep"
  param {
    lr_mult: 0
    decay_mult: 0
  }
  param {
    lr_mult: 0
    decay_mult: 0
  }
  scale_param {
    filler {
      value: 0
    }
    bias_term: true
    bias_filler {
      value: 0
    }
  }
}
layer {
  name: "relu4_1/sep"
  type: "ReLU"
  bottom: "conv4_1/sep"
  top: "conv4_1/sep"
}
layer {
  name: "conv4_2/dw"
  type: "Convolution"
  bottom: "conv4_1/sep"
  top: "conv4_2/dw"
  param {
    lr_mult: 1
    decay_mult: 1
  }
  convolution_param {
    num_output: 256
    bias_term: false
    pad: 1
    kernel_size: 3
    group: 256
    stride: 2
    weight_filler {
      type: "msra"
    }
    engine: CAFFE
  }
}
layer {
  name: "conv4_2/dw/bn"
  type: "BatchNorm"
  bottom: "conv4_2/dw"
  top: "conv4_2/dw"
  param {
    lr_mult: 0
    decay_mult: 0
  }
  param {
    lr_mult: 0
    decay_mult: 0
  }
  param {
    lr_mult: 0
    decay_mult: 0
  }
}
layer {
  name: "conv4_2/dw/scale"
  type: "Scale"
  bottom: "conv4_2/dw"
  top: "conv4_2/dw"
  param {
    lr_mult: 0
    decay_mult: 0
  }
  param {
    lr_mult: 0
    decay_mult: 0
  }
  scale_param {
    filler {
      value: 0
    }
    bias_term: true
    bias_filler {
      value: 0
    }
  }
}
layer {
  name: "relu4_2/dw"
  type: "ReLU"
  bottom: "conv4_2/dw"
  top: "conv4_2/dw"
}
layer {
  name: "conv4_2/sep"
  type: "Convolution"
  bottom: "conv4_2/dw"
  top: "conv4_2/sep"
  param {
    lr_mult: 1
    decay_mult: 1
  }
  convolution_param {
    num_output: 512
    bias_term: false
    pad: 0
    kernel_size: 1
    stride: 1
    weight_filler {
      type: "msra"
    }
  }
}
layer {
  name: "conv4_2/sep/bn"
  type: "BatchNorm"
  bottom: "conv4_2/sep"
  top: "conv4_2/sep"
  param {
    lr_mult: 0
    decay_mult: 0
  }
  param {
    lr_mult: 0
    decay_mult: 0
  }
  param {
    lr_mult: 0
    decay_mult: 0
  }
}
layer {
  name: "conv4_2/sep/scale"
  type: "Scale"
  bottom: "conv4_2/sep"
  top: "conv4_2/sep"
  param {
    lr_mult: 0
    decay_mult: 0
  }
  param {
    lr_mult: 0
    decay_mult: 0
  }
  scale_param {
    filler {
      value: 0
    }
    bias_term: true
    bias_filler {
      value: 0
    }
  }
}
layer {
  name: "relu4_2/sep"
  type: "ReLU"
  bottom: "conv4_2/sep"
  top: "conv4_2/sep"
}
layer {
  name: "conv5_1/dw"
  type: "Convolution"
  bottom: "conv4_2/sep"
  top: "conv5_1/dw"
  param {
    lr_mult: 1
    decay_mult: 1
  }
  convolution_param {
    num_output: 512
    bias_term: false
    pad: 1
    kernel_size: 3
    group: 512
    stride: 1
    weight_filler {
      type: "msra"
    }
    engine: CAFFE
  }
}
layer {
  name: "conv5_1/dw/bn"
  type: "BatchNorm"
  bottom: "conv5_1/dw"
  top: "conv5_1/dw"
  param {
    lr_mult: 0
    decay_mult: 0
  }
  param {
    lr_mult: 0
    decay_mult: 0
  }
  param {
    lr_mult: 0
    decay_mult: 0
  }
}
layer {
  name: "conv5_1/dw/scale"
  type: "Scale"
  bottom: "conv5_1/dw"
  top: "conv5_1/dw"
  param {
    lr_mult: 0
    decay_mult: 0
  }
  param {
    lr_mult: 0
    decay_mult: 0
  }
  scale_param {
    filler {
      value: 0
    }
    bias_term: true
    bias_filler {
      value: 0
    }
  }
}
layer {
  name: "relu5_1/dw"
  type: "ReLU"
  bottom: "conv5_1/dw"
  top: "conv5_1/dw"
}
layer {
  name: "conv5_1/sep"
  type: "Convolution"
  bottom: "conv5_1/dw"
  top: "conv5_1/sep"
  param {
    lr_mult: 1
    decay_mult: 1
  }
  convolution_param {
    num_output: 512
    bias_term: false
    pad: 0
    kernel_size: 1
    stride: 1
    weight_filler {
      type: "msra"
    }
  }
}
layer {
  name: "conv5_1/sep/bn"
  type: "BatchNorm"
  bottom: "conv5_1/sep"
  top: "conv5_1/sep"
  param {
    lr_mult: 0
    decay_mult: 0
  }
  param {
    lr_mult: 0
    decay_mult: 0
  }
  param {
    lr_mult: 0
    decay_mult: 0
  }
}
layer {
  name: "conv5_1/sep/scale"
  type: "Scale"
  bottom: "conv5_1/sep"
  top: "conv5_1/sep"
  param {
    lr_mult: 0
    decay_mult: 0
  }
  param {
    lr_mult: 0
    decay_mult: 0
  }
  scale_param {
    filler {
      value: 0
    }
    bias_term: true
    bias_filler {
      value: 0
    }
  }
}
layer {
  name: "relu5_1/sep"
  type: "ReLU"
  bottom: "conv5_1/sep"
  top: "conv5_1/sep"
}
layer {
  name: "conv5_2/dw"
  type: "Convolution"
  bottom: "conv5_1/sep"
  top: "conv5_2/dw"
  param {
    lr_mult: 1
    decay_mult: 1
  }
  convolution_param {
    num_output: 512
    bias_term: false
    pad: 1
    kernel_size: 3
    group: 512
    stride: 1
    weight_filler {
      type: "msra"
    }
    engine: CAFFE
  }
}
layer {
  name: "conv5_2/dw/bn"
  type: "BatchNorm"
  bottom: "conv5_2/dw"
  top: "conv5_2/dw"
  param {
    lr_mult: 0
    decay_mult: 0
  }
  param {
    lr_mult: 0
    decay_mult: 0
  }
  param {
    lr_mult: 0
    decay_mult: 0
  }
}
layer {
  name: "conv5_2/dw/scale"
  type: "Scale"
  bottom: "conv5_2/dw"
  top: "conv5_2/dw"
  param {
    lr_mult: 0
    decay_mult: 0
  }
  param {
    lr_mult: 0
    decay_mult: 0
  }
  scale_param {
    filler {
      value: 0
    }
    bias_term: true
    bias_filler {
      value: 0
    }
  }
}
layer {
  name: "relu5_2/dw"
  type: "ReLU"
  bottom: "conv5_2/dw"
  top: "conv5_2/dw"
}
layer {
  name: "conv5_2/sep"
  type: "Convolution"
  bottom: "conv5_2/dw"
  top: "conv5_2/sep"
  param {
    lr_mult: 1
    decay_mult: 1
  }
  convolution_param {
    num_output: 512
    bias_term: false
    pad: 0
    kernel_size: 1
    stride: 1
    weight_filler {
      type: "msra"
    }
  }
}
layer {
  name: "conv5_2/sep/bn"
  type: "BatchNorm"
  bottom: "conv5_2/sep"
  top: "conv5_2/sep"
  param {
    lr_mult: 0
    decay_mult: 0
  }
  param {
    lr_mult: 0
    decay_mult: 0
  }
  param {
    lr_mult: 0
    decay_mult: 0
  }
}
layer {
  name: "conv5_2/sep/scale"
  type: "Scale"
  bottom: "conv5_2/sep"
  top: "conv5_2/sep"
  param {
    lr_mult: 0
    decay_mult: 0
  }
  param {
    lr_mult: 0
    decay_mult: 0
  }
  scale_param {
    filler {
      value: 0
    }
    bias_term: true
    bias_filler {
      value: 0
    }
  }
}
layer {
  name: "relu5_2/sep"
  type: "ReLU"
  bottom: "conv5_2/sep"
  top: "conv5_2/sep"
}
layer {
  name: "conv5_3/dw"
  type: "Convolution"
  bottom: "conv5_2/sep"
  top: "conv5_3/dw"
  param {
    lr_mult: 1
    decay_mult: 1
  }
  convolution_param {
    num_output: 512
    bias_term: false
    pad: 1
    kernel_size: 3
    group: 512
    stride: 1
    weight_filler {
      type: "msra"
    }
    engine: CAFFE
  }
}
layer {
  name: "conv5_3/dw/bn"
  type: "BatchNorm"
  bottom: "conv5_3/dw"
  top: "conv5_3/dw"
  param {
    lr_mult: 0
    decay_mult: 0
  }
  param {
    lr_mult: 0
    decay_mult: 0
  }
  param {
    lr_mult: 0
    decay_mult: 0
  }
}
layer {
  name: "conv5_3/dw/scale"
  type: "Scale"
  bottom: "conv5_3/dw"
  top: "conv5_3/dw"
  param {
    lr_mult: 0
    decay_mult: 0
  }
  param {
    lr_mult: 0
    decay_mult: 0
  }
  scale_param {
    filler {
      value: 0
    }
    bias_term: true
    bias_filler {
      value: 0
    }
  }
}
layer {
  name: "relu5_3/dw"
  type: "ReLU"
  bottom: "conv5_3/dw"
  top: "conv5_3/dw"
}
layer {
  name: "conv5_3/sep"
  type: "Convolution"
  bottom: "conv5_3/dw"
  top: "conv5_3/sep"
  param {
    lr_mult: 1
    decay_mult: 1
  }
  convolution_param {
    num_output: 512
    bias_term: false
    pad: 0
    kernel_size: 1
    stride: 1
    weight_filler {
      type: "msra"
    }
  }
}
layer {
  name: "conv5_3/sep/bn"
  type: "BatchNorm"
  bottom: "conv5_3/sep"
  top: "conv5_3/sep"
  param {
    lr_mult: 0
    decay_mult: 0
  }
  param {
    lr_mult: 0
    decay_mult: 0
  }
  param {
    lr_mult: 0
    decay_mult: 0
  }
}
layer {
  name: "conv5_3/sep/scale"
  type: "Scale"
  bottom: "conv5_3/sep"
  top: "conv5_3/sep"
  param {
    lr_mult: 0
    decay_mult: 0
  }
  param {
    lr_mult: 0
    decay_mult: 0
  }
  scale_param {
    filler {
      value: 0
    }
    bias_term: true
    bias_filler {
      value: 0
    }
  }
}
layer {
  name: "relu5_3/sep"
  type: "ReLU"
  bottom: "conv5_3/sep"
  top: "conv5_3/sep"
}
layer {
  name: "conv5_4/dw"
  type: "Convolution"
  bottom: "conv5_3/sep"
  top: "conv5_4/dw"
  param {
    lr_mult: 1
    decay_mult: 1
  }
  convolution_param {
    num_output: 512
    bias_term: false
    pad: 1
    kernel_size: 3
    group: 512
    stride: 1
    weight_filler {
      type: "msra"
    }
    engine: CAFFE
  }
}
layer {
  name: "conv5_4/dw/bn"
  type: "BatchNorm"
  bottom: "conv5_4/dw"
  top: "conv5_4/dw"
  param {
    lr_mult: 0
    decay_mult: 0
  }
  param {
    lr_mult: 0
    decay_mult: 0
  }
  param {
    lr_mult: 0
    decay_mult: 0
  }
}
layer {
  name: "conv5_4/dw/scale"
  type: "Scale"
  bottom: "conv5_4/dw"
  top: "conv5_4/dw"
  param {
    lr_mult: 0
    decay_mult: 0
  }
  param {
    lr_mult: 0
    decay_mult: 0
  }
  scale_param {
    filler {
      value: 0
    }
    bias_term: true
    bias_filler {
      value: 0
    }
  }
}
layer {
  name: "relu5_4/dw"
  type: "ReLU"
  bottom: "conv5_4/dw"
  top: "conv5_4/dw"
}
layer {
  name: "conv5_4/sep"
  type: "Convolution"
  bottom: "conv5_4/dw"
  top: "conv5_4/sep"
  param {
    lr_mult: 1
    decay_mult: 1
  }
  convolution_param {
    num_output: 512
    bias_term: false
    pad: 0
    kernel_size: 1
    stride: 1
    weight_filler {
      type: "msra"
    }
  }
}
layer {
  name: "conv5_4/sep/bn"
  type: "BatchNorm"
  bottom: "conv5_4/sep"
  top: "conv5_4/sep"
  param {
    lr_mult: 0
    decay_mult: 0
  }
  param {
    lr_mult: 0
    decay_mult: 0
  }
  param {
    lr_mult: 0
    decay_mult: 0
  }
}
layer {
  name: "conv5_4/sep/scale"
  type: "Scale"
  bottom: "conv5_4/sep"
  top: "conv5_4/sep"
  param {
    lr_mult: 0
    decay_mult: 0
  }
  param {
    lr_mult: 0
    decay_mult: 0
  }
  scale_param {
    filler {
      value: 0
    }
    bias_term: true
    bias_filler {
      value: 0
    }
  }
}
layer {
  name: "relu5_4/sep"
  type: "ReLU"
  bottom: "conv5_4/sep"
  top: "conv5_4/sep"
}
layer {
  name: "conv5_5/dw"
  type: "Convolution"
  bottom: "conv5_4/sep"
  top: "conv5_5/dw"
  param {
    lr_mult: 1
    decay_mult: 1
  }
  convolution_param {
    num_output: 512
    bias_term: false
    pad: 1
    kernel_size: 3
    group: 512
    stride: 1
    weight_filler {
      type: "msra"
    }
    engine: CAFFE
  }
}
layer {
  name: "conv5_5/dw/bn"
  type: "BatchNorm"
  bottom: "conv5_5/dw"
  top: "conv5_5/dw"
  param {
    lr_mult: 0
    decay_mult: 0
  }
  param {
    lr_mult: 0
    decay_mult: 0
  }
  param {
    lr_mult: 0
    decay_mult: 0
  }
}
layer {
  name: "conv5_5/dw/scale"
  type: "Scale"
  bottom: "conv5_5/dw"
  top: "conv5_5/dw"
  param {
    lr_mult: 0
    decay_mult: 0
  }
  param {
    lr_mult: 0
    decay_mult: 0
  }
  scale_param {
    filler {
      value: 0
    }
    bias_term: true
    bias_filler {
      value: 0
    }
  }
}
layer {
  name: "relu5_5/dw"
  type: "ReLU"
  bottom: "conv5_5/dw"
  top: "conv5_5/dw"
}
layer {
  name: "conv5_5/sep"
  type: "Convolution"
  bottom: "conv5_5/dw"
  top: "conv5_5/sep"
  param {
    lr_mult: 1
    decay_mult: 1
  }
  convolution_param {
    num_output: 512
    bias_term: false
    pad: 0
    kernel_size: 1
    stride: 1
    weight_filler {
      type: "msra"
    }
  }
}
layer {
  name: "conv5_5/sep/bn"
  type: "BatchNorm"
  bottom: "conv5_5/sep"
  top: "conv5_5/sep"
  param {
    lr_mult: 0
    decay_mult: 0
  }
  param {
    lr_mult: 0
    decay_mult: 0
  }
  param {
    lr_mult: 0
    decay_mult: 0
  }
}
layer {
  name: "conv5_5/sep/scale"
  type: "Scale"
  bottom: "conv5_5/sep"
  top: "conv5_5/sep"
  param {
    lr_mult: 0
    decay_mult: 0
  }
  param {
    lr_mult: 0
    decay_mult: 0
  }
  scale_param {
    filler {
      value: 0
    }
    bias_term: true
    bias_filler {
      value: 0
    }
  }
}
layer {
  name: "relu5_5/sep"
  type: "ReLU"
  bottom: "conv5_5/sep"
  top: "conv5_5/sep"
}
layer {
  name: "conv5_6/dw"
  type: "Convolution"
  bottom: "conv5_5/sep"
  top: "conv5_6/dw"
  param {
    lr_mult: 1
    decay_mult: 1
  }
  convolution_param {
    num_output: 512
    bias_term: false
    pad: 1
    kernel_size: 3
    group: 512
    stride: 2
    weight_filler {
      type: "msra"
    }
    engine: CAFFE
  }
}
layer {
  name: "conv5_6/dw/bn"
  type: "BatchNorm"
  bottom: "conv5_6/dw"
  top: "conv5_6/dw"
  param {
    lr_mult: 0
    decay_mult: 0
  }
  param {
    lr_mult: 0
    decay_mult: 0
  }
  param {
    lr_mult: 0
    decay_mult: 0
  }
}
layer {
  name: "conv5_6/dw/scale"
  type: "Scale"
  bottom: "conv5_6/dw"
  top: "conv5_6/dw"
  param {
    lr_mult: 0
    decay_mult: 0
  }
  param {
    lr_mult: 0
    decay_mult: 0
  }
  scale_param {
    filler {
      value: 0
    }
    bias_term: true
    bias_filler {
      value: 0
    }
  }
}
layer {
  name: "relu5_6/dw"
  type: "ReLU"
  bottom: "conv5_6/dw"
  top: "conv5_6/dw"
}
layer {
  name: "conv5_6/sep"
  type: "Convolution"
  bottom: "conv5_6/dw"
  top: "conv5_6/sep"
  param {
    lr_mult: 1
    decay_mult: 1
  }
  convolution_param {
    num_output: 1024
    bias_term: false
    pad: 0
    kernel_size: 1
    stride: 1
    weight_filler {
      type: "msra"
    }
  }
}
layer {
  name: "conv5_6/sep/bn"
  type: "BatchNorm"
  bottom: "conv5_6/sep"
  top: "conv5_6/sep"
  param {
    lr_mult: 0
    decay_mult: 0
  }
  param {
    lr_mult: 0
    decay_mult: 0
  }
  param {
    lr_mult: 0
    decay_mult: 0
  }
}
layer {
  name: "conv5_6/sep/scale"
  type: "Scale"
  bottom: "conv5_6/sep"
  top: "conv5_6/sep"
  param {
    lr_mult: 0
    decay_mult: 0
  }
  param {
    lr_mult: 0
    decay_mult: 0
  }
  scale_param {
    filler {
      value: 0
    }
    bias_term: true
    bias_filler {
      value: 0
    }
  }
}
layer {
  name: "relu5_6/sep"
  type: "ReLU"
  bottom: "conv5_6/sep"
  top: "conv5_6/sep"
}
layer {
  name: "conv6/dw"
  type: "Convolution"
  bottom: "conv5_6/sep"
  top: "conv6/dw"
  param {
    lr_mult: 1
    decay_mult: 1
  }
  convolution_param {
    num_output: 1024
    bias_term: false
    pad: 1
    kernel_size: 3
    group: 1024
    stride: 1
    weight_filler {
      type: "msra"
    }
    engine: CAFFE
  }
}
layer {
  name: "conv6/dw/bn"
  type: "BatchNorm"
  bottom: "conv6/dw"
  top: "conv6/dw"
  param {
    lr_mult: 0
    decay_mult: 0
  }
  param {
    lr_mult: 0
    decay_mult: 0
  }
  param {
    lr_mult: 0
    decay_mult: 0
  }
}
layer {
  name: "conv6/dw/scale"
  type: "Scale"
  bottom: "conv6/dw"
  top: "conv6/dw"
  param {
    lr_mult: 0
    decay_mult: 0
  }
  param {
    lr_mult: 0
    decay_mult: 0
  }
  scale_param {
    filler {
      value: 0
    }
    bias_term: true
    bias_filler {
      value: 0
    }
  }
}
layer {
  name: "relu6/dw"
  type: "ReLU"
  bottom: "conv6/dw"
  top: "conv6/dw"
}
layer {
  name: "conv6/sep"
  type: "Convolution"
  bottom: "conv6/dw"
  top: "conv6/sep"
  param {
    lr_mult: 1
    decay_mult: 1
  }
  convolution_param {
    num_output: 1024
    bias_term: false
    pad: 0
    kernel_size: 1
    stride: 1
    weight_filler {
      type: "msra"
    }
  }
}
layer {
  name: "conv6/sep/bn"
  type: "BatchNorm"
  bottom: "conv6/sep"
  top: "conv6/sep"
  param {
    lr_mult: 0
    decay_mult: 0
  }
  param {
    lr_mult: 0
    decay_mult: 0
  }
  param {
    lr_mult: 0
    decay_mult: 0
  }
}
layer {
  name: "conv6/sep/scale"
  type: "Scale"
  bottom: "conv6/sep"
  top: "conv6/sep"
  param {
    lr_mult: 0
    decay_mult: 0
  }
  param {
    lr_mult: 0
    decay_mult: 0
  }
  scale_param {
    filler {
      value: 0
    }
    bias_term: true
    bias_filler {
      value: 0
    }
  }
}
layer {
  name: "relu6/sep"
  type: "ReLU"
  bottom: "conv6/sep"
  top: "conv6/sep"
}
layer {
  name: "pool6"
  type: "Pooling"
  bottom: "conv6/sep"
  top: "pool6"
  pooling_param {
    pool: AVE
    global_pooling: true
  }
}
layer {
  name: "myfc7"
  type: "Convolution"
  bottom: "pool6"
  top: "myfc7"
  param {
    lr_mult: 1
    decay_mult: 1
  }
  param {
    lr_mult: 2
    decay_mult: 0
  }
  convolution_param {
    num_output: 6
    kernel_size: 1
    weight_filler {
      type: "msra"
    }
    bias_filler {
      type: "msra"
    }
  }
}
layer {
  name: "loss"
  type: "SoftmaxWithLoss"
  bottom: "myfc7"
  bottom: "label"
  top: "loss"
}
layer {
  name: "top1/acc"
  type: "Accuracy"
  bottom: "myfc7"
  bottom: "label"
  top: "top1/acc"
  include {
    phase: TEST
  }
  accuracy_param {
    top_k: 1
  }
}
layer {
  name: "top5/acc"
  type: "Accuracy"
  bottom: "myfc7"
  bottom: "label"
  top: "top5/acc"
  include {
    phase: TEST
  }
  accuracy_param {
    top_k: 5
  }
}
I0810 11:30:04.833525 30323 layer_factory.hpp:77] Creating layer data_test
I0810 11:30:04.833541 30323 net.cpp:84] Creating Layer data_test
I0810 11:30:04.833547 30323 net.cpp:380] data_test -> data
I0810 11:30:04.833556 30323 net.cpp:380] data_test -> label
I0810 11:30:04.833570 30323 image_data_layer.cpp:38] Opening file /home/liuyp/liu/keras_mobilenet/data3/test_txt.txt
I0810 11:30:04.834297 30323 image_data_layer.cpp:53] Shuffling data
I0810 11:30:04.834564 30323 image_data_layer.cpp:63] A total of 2479 images.
I0810 11:30:04.842525 30323 image_data_layer.cpp:90] output data size: 32,3,224,224
I0810 11:30:04.888037 30323 net.cpp:122] Setting up data_test
I0810 11:30:04.888080 30323 net.cpp:129] Top shape: 32 3 224 224 (4816896)
I0810 11:30:04.888087 30323 net.cpp:129] Top shape: 32 (32)
I0810 11:30:04.888090 30323 net.cpp:137] Memory required for data: 19267712
I0810 11:30:04.888098 30323 layer_factory.hpp:77] Creating layer label_data_test_1_split
I0810 11:30:04.888114 30323 net.cpp:84] Creating Layer label_data_test_1_split
I0810 11:30:04.888119 30323 net.cpp:406] label_data_test_1_split <- label
I0810 11:30:04.888129 30323 net.cpp:380] label_data_test_1_split -> label_data_test_1_split_0
I0810 11:30:04.888142 30323 net.cpp:380] label_data_test_1_split -> label_data_test_1_split_1
I0810 11:30:04.888151 30323 net.cpp:380] label_data_test_1_split -> label_data_test_1_split_2
I0810 11:30:04.888240 30323 net.cpp:122] Setting up label_data_test_1_split
I0810 11:30:04.888247 30323 net.cpp:129] Top shape: 32 (32)
I0810 11:30:04.888252 30323 net.cpp:129] Top shape: 32 (32)
I0810 11:30:04.888257 30323 net.cpp:129] Top shape: 32 (32)
I0810 11:30:04.888259 30323 net.cpp:137] Memory required for data: 19268096
I0810 11:30:04.888263 30323 layer_factory.hpp:77] Creating layer conv1
I0810 11:30:04.888288 30323 net.cpp:84] Creating Layer conv1
I0810 11:30:04.888293 30323 net.cpp:406] conv1 <- data
I0810 11:30:04.888300 30323 net.cpp:380] conv1 -> conv1
I0810 11:30:04.891119 30323 net.cpp:122] Setting up conv1
I0810 11:30:04.891136 30323 net.cpp:129] Top shape: 32 32 112 112 (12845056)
I0810 11:30:04.891140 30323 net.cpp:137] Memory required for data: 70648320
I0810 11:30:04.891150 30323 layer_factory.hpp:77] Creating layer conv1/bn
I0810 11:30:04.891160 30323 net.cpp:84] Creating Layer conv1/bn
I0810 11:30:04.891165 30323 net.cpp:406] conv1/bn <- conv1
I0810 11:30:04.891171 30323 net.cpp:367] conv1/bn -> conv1 (in-place)
I0810 11:30:04.891427 30323 net.cpp:122] Setting up conv1/bn
I0810 11:30:04.891434 30323 net.cpp:129] Top shape: 32 32 112 112 (12845056)
I0810 11:30:04.891438 30323 net.cpp:137] Memory required for data: 122028544
I0810 11:30:04.891449 30323 layer_factory.hpp:77] Creating layer conv1/scale
I0810 11:30:04.891458 30323 net.cpp:84] Creating Layer conv1/scale
I0810 11:30:04.891463 30323 net.cpp:406] conv1/scale <- conv1
I0810 11:30:04.891470 30323 net.cpp:367] conv1/scale -> conv1 (in-place)
I0810 11:30:04.891517 30323 layer_factory.hpp:77] Creating layer conv1/scale
I0810 11:30:04.891676 30323 net.cpp:122] Setting up conv1/scale
I0810 11:30:04.891685 30323 net.cpp:129] Top shape: 32 32 112 112 (12845056)
I0810 11:30:04.891688 30323 net.cpp:137] Memory required for data: 173408768
I0810 11:30:04.891696 30323 layer_factory.hpp:77] Creating layer relu1
I0810 11:30:04.891705 30323 net.cpp:84] Creating Layer relu1
I0810 11:30:04.891708 30323 net.cpp:406] relu1 <- conv1
I0810 11:30:04.891715 30323 net.cpp:367] relu1 -> conv1 (in-place)
I0810 11:30:04.892464 30323 net.cpp:122] Setting up relu1
I0810 11:30:04.892479 30323 net.cpp:129] Top shape: 32 32 112 112 (12845056)
I0810 11:30:04.892483 30323 net.cpp:137] Memory required for data: 224788992
I0810 11:30:04.892488 30323 layer_factory.hpp:77] Creating layer conv2_1/dw
I0810 11:30:04.892498 30323 net.cpp:84] Creating Layer conv2_1/dw
I0810 11:30:04.892503 30323 net.cpp:406] conv2_1/dw <- conv1
I0810 11:30:04.892510 30323 net.cpp:380] conv2_1/dw -> conv2_1/dw
I0810 11:30:04.892755 30323 net.cpp:122] Setting up conv2_1/dw
I0810 11:30:04.892762 30323 net.cpp:129] Top shape: 32 32 112 112 (12845056)
I0810 11:30:04.892766 30323 net.cpp:137] Memory required for data: 276169216
I0810 11:30:04.892772 30323 layer_factory.hpp:77] Creating layer conv2_1/dw/bn
I0810 11:30:04.892779 30323 net.cpp:84] Creating Layer conv2_1/dw/bn
I0810 11:30:04.892783 30323 net.cpp:406] conv2_1/dw/bn <- conv2_1/dw
I0810 11:30:04.892789 30323 net.cpp:367] conv2_1/dw/bn -> conv2_1/dw (in-place)
I0810 11:30:04.893030 30323 net.cpp:122] Setting up conv2_1/dw/bn
I0810 11:30:04.893038 30323 net.cpp:129] Top shape: 32 32 112 112 (12845056)
I0810 11:30:04.893043 30323 net.cpp:137] Memory required for data: 327549440
I0810 11:30:04.893052 30323 layer_factory.hpp:77] Creating layer conv2_1/dw/scale
I0810 11:30:04.893061 30323 net.cpp:84] Creating Layer conv2_1/dw/scale
I0810 11:30:04.893066 30323 net.cpp:406] conv2_1/dw/scale <- conv2_1/dw
I0810 11:30:04.893074 30323 net.cpp:367] conv2_1/dw/scale -> conv2_1/dw (in-place)
I0810 11:30:04.893118 30323 layer_factory.hpp:77] Creating layer conv2_1/dw/scale
I0810 11:30:04.893275 30323 net.cpp:122] Setting up conv2_1/dw/scale
I0810 11:30:04.893282 30323 net.cpp:129] Top shape: 32 32 112 112 (12845056)
I0810 11:30:04.893286 30323 net.cpp:137] Memory required for data: 378929664
I0810 11:30:04.893292 30323 layer_factory.hpp:77] Creating layer relu2_1/dw
I0810 11:30:04.893298 30323 net.cpp:84] Creating Layer relu2_1/dw
I0810 11:30:04.893303 30323 net.cpp:406] relu2_1/dw <- conv2_1/dw
I0810 11:30:04.893309 30323 net.cpp:367] relu2_1/dw -> conv2_1/dw (in-place)
I0810 11:30:04.893858 30323 net.cpp:122] Setting up relu2_1/dw
I0810 11:30:04.893870 30323 net.cpp:129] Top shape: 32 32 112 112 (12845056)
I0810 11:30:04.893874 30323 net.cpp:137] Memory required for data: 430309888
I0810 11:30:04.893878 30323 layer_factory.hpp:77] Creating layer conv2_1/sep
I0810 11:30:04.893893 30323 net.cpp:84] Creating Layer conv2_1/sep
I0810 11:30:04.893898 30323 net.cpp:406] conv2_1/sep <- conv2_1/dw
I0810 11:30:04.893906 30323 net.cpp:380] conv2_1/sep -> conv2_1/sep
I0810 11:30:04.896456 30323 net.cpp:122] Setting up conv2_1/sep
I0810 11:30:04.896472 30323 net.cpp:129] Top shape: 32 64 112 112 (25690112)
I0810 11:30:04.896477 30323 net.cpp:137] Memory required for data: 533070336
I0810 11:30:04.896483 30323 layer_factory.hpp:77] Creating layer conv2_1/sep/bn
I0810 11:30:04.896490 30323 net.cpp:84] Creating Layer conv2_1/sep/bn
I0810 11:30:04.896495 30323 net.cpp:406] conv2_1/sep/bn <- conv2_1/sep
I0810 11:30:04.896502 30323 net.cpp:367] conv2_1/sep/bn -> conv2_1/sep (in-place)
I0810 11:30:04.896769 30323 net.cpp:122] Setting up conv2_1/sep/bn
I0810 11:30:04.896776 30323 net.cpp:129] Top shape: 32 64 112 112 (25690112)
I0810 11:30:04.896780 30323 net.cpp:137] Memory required for data: 635830784
I0810 11:30:04.896788 30323 layer_factory.hpp:77] Creating layer conv2_1/sep/scale
I0810 11:30:04.896796 30323 net.cpp:84] Creating Layer conv2_1/sep/scale
I0810 11:30:04.896800 30323 net.cpp:406] conv2_1/sep/scale <- conv2_1/sep
I0810 11:30:04.896808 30323 net.cpp:367] conv2_1/sep/scale -> conv2_1/sep (in-place)
I0810 11:30:04.896857 30323 layer_factory.hpp:77] Creating layer conv2_1/sep/scale
I0810 11:30:04.897025 30323 net.cpp:122] Setting up conv2_1/sep/scale
I0810 11:30:04.897034 30323 net.cpp:129] Top shape: 32 64 112 112 (25690112)
I0810 11:30:04.897038 30323 net.cpp:137] Memory required for data: 738591232
I0810 11:30:04.897047 30323 layer_factory.hpp:77] Creating layer relu2_1/sep
I0810 11:30:04.897055 30323 net.cpp:84] Creating Layer relu2_1/sep
I0810 11:30:04.897060 30323 net.cpp:406] relu2_1/sep <- conv2_1/sep
I0810 11:30:04.897065 30323 net.cpp:367] relu2_1/sep -> conv2_1/sep (in-place)
I0810 11:30:04.897902 30323 net.cpp:122] Setting up relu2_1/sep
I0810 11:30:04.897917 30323 net.cpp:129] Top shape: 32 64 112 112 (25690112)
I0810 11:30:04.897922 30323 net.cpp:137] Memory required for data: 841351680
I0810 11:30:04.897925 30323 layer_factory.hpp:77] Creating layer conv2_2/dw
I0810 11:30:04.897939 30323 net.cpp:84] Creating Layer conv2_2/dw
I0810 11:30:04.897944 30323 net.cpp:406] conv2_2/dw <- conv2_1/sep
I0810 11:30:04.897953 30323 net.cpp:380] conv2_2/dw -> conv2_2/dw
I0810 11:30:04.898213 30323 net.cpp:122] Setting up conv2_2/dw
I0810 11:30:04.898222 30323 net.cpp:129] Top shape: 32 64 56 56 (6422528)
I0810 11:30:04.898226 30323 net.cpp:137] Memory required for data: 867041792
I0810 11:30:04.898232 30323 layer_factory.hpp:77] Creating layer conv2_2/dw/bn
I0810 11:30:04.898238 30323 net.cpp:84] Creating Layer conv2_2/dw/bn
I0810 11:30:04.898242 30323 net.cpp:406] conv2_2/dw/bn <- conv2_2/dw
I0810 11:30:04.898248 30323 net.cpp:367] conv2_2/dw/bn -> conv2_2/dw (in-place)
I0810 11:30:04.898491 30323 net.cpp:122] Setting up conv2_2/dw/bn
I0810 11:30:04.898499 30323 net.cpp:129] Top shape: 32 64 56 56 (6422528)
I0810 11:30:04.898504 30323 net.cpp:137] Memory required for data: 892731904
I0810 11:30:04.898510 30323 layer_factory.hpp:77] Creating layer conv2_2/dw/scale
I0810 11:30:04.898519 30323 net.cpp:84] Creating Layer conv2_2/dw/scale
I0810 11:30:04.898524 30323 net.cpp:406] conv2_2/dw/scale <- conv2_2/dw
I0810 11:30:04.898531 30323 net.cpp:367] conv2_2/dw/scale -> conv2_2/dw (in-place)
I0810 11:30:04.898579 30323 layer_factory.hpp:77] Creating layer conv2_2/dw/scale
I0810 11:30:04.898733 30323 net.cpp:122] Setting up conv2_2/dw/scale
I0810 11:30:04.898741 30323 net.cpp:129] Top shape: 32 64 56 56 (6422528)
I0810 11:30:04.898744 30323 net.cpp:137] Memory required for data: 918422016
I0810 11:30:04.898751 30323 layer_factory.hpp:77] Creating layer relu2_2/dw
I0810 11:30:04.898757 30323 net.cpp:84] Creating Layer relu2_2/dw
I0810 11:30:04.898761 30323 net.cpp:406] relu2_2/dw <- conv2_2/dw
I0810 11:30:04.898768 30323 net.cpp:367] relu2_2/dw -> conv2_2/dw (in-place)
I0810 11:30:04.899394 30323 net.cpp:122] Setting up relu2_2/dw
I0810 11:30:04.899408 30323 net.cpp:129] Top shape: 32 64 56 56 (6422528)
I0810 11:30:04.899412 30323 net.cpp:137] Memory required for data: 944112128
I0810 11:30:04.899416 30323 layer_factory.hpp:77] Creating layer conv2_2/sep
I0810 11:30:04.899427 30323 net.cpp:84] Creating Layer conv2_2/sep
I0810 11:30:04.899431 30323 net.cpp:406] conv2_2/sep <- conv2_2/dw
I0810 11:30:04.899439 30323 net.cpp:380] conv2_2/sep -> conv2_2/sep
I0810 11:30:04.901896 30323 net.cpp:122] Setting up conv2_2/sep
I0810 11:30:04.901911 30323 net.cpp:129] Top shape: 32 128 56 56 (12845056)
I0810 11:30:04.901916 30323 net.cpp:137] Memory required for data: 995492352
I0810 11:30:04.901922 30323 layer_factory.hpp:77] Creating layer conv2_2/sep/bn
I0810 11:30:04.901932 30323 net.cpp:84] Creating Layer conv2_2/sep/bn
I0810 11:30:04.901937 30323 net.cpp:406] conv2_2/sep/bn <- conv2_2/sep
I0810 11:30:04.901944 30323 net.cpp:367] conv2_2/sep/bn -> conv2_2/sep (in-place)
I0810 11:30:04.902189 30323 net.cpp:122] Setting up conv2_2/sep/bn
I0810 11:30:04.902196 30323 net.cpp:129] Top shape: 32 128 56 56 (12845056)
I0810 11:30:04.902200 30323 net.cpp:137] Memory required for data: 1046872576
I0810 11:30:04.902209 30323 layer_factory.hpp:77] Creating layer conv2_2/sep/scale
I0810 11:30:04.902217 30323 net.cpp:84] Creating Layer conv2_2/sep/scale
I0810 11:30:04.902222 30323 net.cpp:406] conv2_2/sep/scale <- conv2_2/sep
I0810 11:30:04.902228 30323 net.cpp:367] conv2_2/sep/scale -> conv2_2/sep (in-place)
I0810 11:30:04.902276 30323 layer_factory.hpp:77] Creating layer conv2_2/sep/scale
I0810 11:30:04.902418 30323 net.cpp:122] Setting up conv2_2/sep/scale
I0810 11:30:04.902426 30323 net.cpp:129] Top shape: 32 128 56 56 (12845056)
I0810 11:30:04.902431 30323 net.cpp:137] Memory required for data: 1098252800
I0810 11:30:04.902436 30323 layer_factory.hpp:77] Creating layer relu2_2/sep
I0810 11:30:04.902443 30323 net.cpp:84] Creating Layer relu2_2/sep
I0810 11:30:04.902447 30323 net.cpp:406] relu2_2/sep <- conv2_2/sep
I0810 11:30:04.902454 30323 net.cpp:367] relu2_2/sep -> conv2_2/sep (in-place)
I0810 11:30:04.903285 30323 net.cpp:122] Setting up relu2_2/sep
I0810 11:30:04.903300 30323 net.cpp:129] Top shape: 32 128 56 56 (12845056)
I0810 11:30:04.903303 30323 net.cpp:137] Memory required for data: 1149633024
I0810 11:30:04.903308 30323 layer_factory.hpp:77] Creating layer conv3_1/dw
I0810 11:30:04.903319 30323 net.cpp:84] Creating Layer conv3_1/dw
I0810 11:30:04.903324 30323 net.cpp:406] conv3_1/dw <- conv2_2/sep
I0810 11:30:04.903332 30323 net.cpp:380] conv3_1/dw -> conv3_1/dw
I0810 11:30:04.903600 30323 net.cpp:122] Setting up conv3_1/dw
I0810 11:30:04.903609 30323 net.cpp:129] Top shape: 32 128 56 56 (12845056)
I0810 11:30:04.903612 30323 net.cpp:137] Memory required for data: 1201013248
I0810 11:30:04.903618 30323 layer_factory.hpp:77] Creating layer conv3_1/dw/bn
I0810 11:30:04.903626 30323 net.cpp:84] Creating Layer conv3_1/dw/bn
I0810 11:30:04.903631 30323 net.cpp:406] conv3_1/dw/bn <- conv3_1/dw
I0810 11:30:04.903636 30323 net.cpp:367] conv3_1/dw/bn -> conv3_1/dw (in-place)
I0810 11:30:04.903867 30323 net.cpp:122] Setting up conv3_1/dw/bn
I0810 11:30:04.903874 30323 net.cpp:129] Top shape: 32 128 56 56 (12845056)
I0810 11:30:04.903878 30323 net.cpp:137] Memory required for data: 1252393472
I0810 11:30:04.903890 30323 layer_factory.hpp:77] Creating layer conv3_1/dw/scale
I0810 11:30:04.903898 30323 net.cpp:84] Creating Layer conv3_1/dw/scale
I0810 11:30:04.903903 30323 net.cpp:406] conv3_1/dw/scale <- conv3_1/dw
I0810 11:30:04.903909 30323 net.cpp:367] conv3_1/dw/scale -> conv3_1/dw (in-place)
I0810 11:30:04.903957 30323 layer_factory.hpp:77] Creating layer conv3_1/dw/scale
I0810 11:30:04.904098 30323 net.cpp:122] Setting up conv3_1/dw/scale
I0810 11:30:04.904109 30323 net.cpp:129] Top shape: 32 128 56 56 (12845056)
I0810 11:30:04.904112 30323 net.cpp:137] Memory required for data: 1303773696
I0810 11:30:04.904119 30323 layer_factory.hpp:77] Creating layer relu3_1/dw
I0810 11:30:04.904124 30323 net.cpp:84] Creating Layer relu3_1/dw
I0810 11:30:04.904129 30323 net.cpp:406] relu3_1/dw <- conv3_1/dw
I0810 11:30:04.904139 30323 net.cpp:367] relu3_1/dw -> conv3_1/dw (in-place)
I0810 11:30:04.904757 30323 net.cpp:122] Setting up relu3_1/dw
I0810 11:30:04.904768 30323 net.cpp:129] Top shape: 32 128 56 56 (12845056)
I0810 11:30:04.904772 30323 net.cpp:137] Memory required for data: 1355153920
I0810 11:30:04.904776 30323 layer_factory.hpp:77] Creating layer conv3_1/sep
I0810 11:30:04.904786 30323 net.cpp:84] Creating Layer conv3_1/sep
I0810 11:30:04.904791 30323 net.cpp:406] conv3_1/sep <- conv3_1/dw
I0810 11:30:04.904799 30323 net.cpp:380] conv3_1/sep -> conv3_1/sep
I0810 11:30:04.908915 30323 net.cpp:122] Setting up conv3_1/sep
I0810 11:30:04.908934 30323 net.cpp:129] Top shape: 32 128 56 56 (12845056)
I0810 11:30:04.908938 30323 net.cpp:137] Memory required for data: 1406534144
I0810 11:30:04.908946 30323 layer_factory.hpp:77] Creating layer conv3_1/sep/bn
I0810 11:30:04.908952 30323 net.cpp:84] Creating Layer conv3_1/sep/bn
I0810 11:30:04.908957 30323 net.cpp:406] conv3_1/sep/bn <- conv3_1/sep
I0810 11:30:04.908964 30323 net.cpp:367] conv3_1/sep/bn -> conv3_1/sep (in-place)
I0810 11:30:04.909215 30323 net.cpp:122] Setting up conv3_1/sep/bn
I0810 11:30:04.909224 30323 net.cpp:129] Top shape: 32 128 56 56 (12845056)
I0810 11:30:04.909227 30323 net.cpp:137] Memory required for data: 1457914368
I0810 11:30:04.909235 30323 layer_factory.hpp:77] Creating layer conv3_1/sep/scale
I0810 11:30:04.909241 30323 net.cpp:84] Creating Layer conv3_1/sep/scale
I0810 11:30:04.909246 30323 net.cpp:406] conv3_1/sep/scale <- conv3_1/sep
I0810 11:30:04.909253 30323 net.cpp:367] conv3_1/sep/scale -> conv3_1/sep (in-place)
I0810 11:30:04.909298 30323 layer_factory.hpp:77] Creating layer conv3_1/sep/scale
I0810 11:30:04.909440 30323 net.cpp:122] Setting up conv3_1/sep/scale
I0810 11:30:04.909449 30323 net.cpp:129] Top shape: 32 128 56 56 (12845056)
I0810 11:30:04.909453 30323 net.cpp:137] Memory required for data: 1509294592
I0810 11:30:04.909459 30323 layer_factory.hpp:77] Creating layer relu3_1/sep
I0810 11:30:04.909466 30323 net.cpp:84] Creating Layer relu3_1/sep
I0810 11:30:04.909471 30323 net.cpp:406] relu3_1/sep <- conv3_1/sep
I0810 11:30:04.909476 30323 net.cpp:367] relu3_1/sep -> conv3_1/sep (in-place)
I0810 11:30:04.910344 30323 net.cpp:122] Setting up relu3_1/sep
I0810 11:30:04.910362 30323 net.cpp:129] Top shape: 32 128 56 56 (12845056)
I0810 11:30:04.910365 30323 net.cpp:137] Memory required for data: 1560674816
I0810 11:30:04.910369 30323 layer_factory.hpp:77] Creating layer conv3_2/dw
I0810 11:30:04.910380 30323 net.cpp:84] Creating Layer conv3_2/dw
I0810 11:30:04.910385 30323 net.cpp:406] conv3_2/dw <- conv3_1/sep
I0810 11:30:04.910392 30323 net.cpp:380] conv3_2/dw -> conv3_2/dw
I0810 11:30:04.910657 30323 net.cpp:122] Setting up conv3_2/dw
I0810 11:30:04.910666 30323 net.cpp:129] Top shape: 32 128 28 28 (3211264)
I0810 11:30:04.910670 30323 net.cpp:137] Memory required for data: 1573519872
I0810 11:30:04.910676 30323 layer_factory.hpp:77] Creating layer conv3_2/dw/bn
I0810 11:30:04.910683 30323 net.cpp:84] Creating Layer conv3_2/dw/bn
I0810 11:30:04.910687 30323 net.cpp:406] conv3_2/dw/bn <- conv3_2/dw
I0810 11:30:04.910693 30323 net.cpp:367] conv3_2/dw/bn -> conv3_2/dw (in-place)
I0810 11:30:04.910929 30323 net.cpp:122] Setting up conv3_2/dw/bn
I0810 11:30:04.910938 30323 net.cpp:129] Top shape: 32 128 28 28 (3211264)
I0810 11:30:04.910941 30323 net.cpp:137] Memory required for data: 1586364928
I0810 11:30:04.910948 30323 layer_factory.hpp:77] Creating layer conv3_2/dw/scale
I0810 11:30:04.910960 30323 net.cpp:84] Creating Layer conv3_2/dw/scale
I0810 11:30:04.910965 30323 net.cpp:406] conv3_2/dw/scale <- conv3_2/dw
I0810 11:30:04.910971 30323 net.cpp:367] conv3_2/dw/scale -> conv3_2/dw (in-place)
I0810 11:30:04.911020 30323 layer_factory.hpp:77] Creating layer conv3_2/dw/scale
I0810 11:30:04.911164 30323 net.cpp:122] Setting up conv3_2/dw/scale
I0810 11:30:04.911172 30323 net.cpp:129] Top shape: 32 128 28 28 (3211264)
I0810 11:30:04.911175 30323 net.cpp:137] Memory required for data: 1599209984
I0810 11:30:04.911187 30323 layer_factory.hpp:77] Creating layer relu3_2/dw
I0810 11:30:04.911195 30323 net.cpp:84] Creating Layer relu3_2/dw
I0810 11:30:04.911201 30323 net.cpp:406] relu3_2/dw <- conv3_2/dw
I0810 11:30:04.911206 30323 net.cpp:367] relu3_2/dw -> conv3_2/dw (in-place)
I0810 11:30:04.911835 30323 net.cpp:122] Setting up relu3_2/dw
I0810 11:30:04.911846 30323 net.cpp:129] Top shape: 32 128 28 28 (3211264)
I0810 11:30:04.911850 30323 net.cpp:137] Memory required for data: 1612055040
I0810 11:30:04.911854 30323 layer_factory.hpp:77] Creating layer conv3_2/sep
I0810 11:30:04.911866 30323 net.cpp:84] Creating Layer conv3_2/sep
I0810 11:30:04.911871 30323 net.cpp:406] conv3_2/sep <- conv3_2/dw
I0810 11:30:04.911877 30323 net.cpp:380] conv3_2/sep -> conv3_2/sep
I0810 11:30:04.914927 30323 net.cpp:122] Setting up conv3_2/sep
I0810 11:30:04.914942 30323 net.cpp:129] Top shape: 32 256 28 28 (6422528)
I0810 11:30:04.914947 30323 net.cpp:137] Memory required for data: 1637745152
I0810 11:30:04.914952 30323 layer_factory.hpp:77] Creating layer conv3_2/sep/bn
I0810 11:30:04.914959 30323 net.cpp:84] Creating Layer conv3_2/sep/bn
I0810 11:30:04.914963 30323 net.cpp:406] conv3_2/sep/bn <- conv3_2/sep
I0810 11:30:04.914970 30323 net.cpp:367] conv3_2/sep/bn -> conv3_2/sep (in-place)
I0810 11:30:04.915199 30323 net.cpp:122] Setting up conv3_2/sep/bn
I0810 11:30:04.915205 30323 net.cpp:129] Top shape: 32 256 28 28 (6422528)
I0810 11:30:04.915210 30323 net.cpp:137] Memory required for data: 1663435264
I0810 11:30:04.915216 30323 layer_factory.hpp:77] Creating layer conv3_2/sep/scale
I0810 11:30:04.915222 30323 net.cpp:84] Creating Layer conv3_2/sep/scale
I0810 11:30:04.915226 30323 net.cpp:406] conv3_2/sep/scale <- conv3_2/sep
I0810 11:30:04.915233 30323 net.cpp:367] conv3_2/sep/scale -> conv3_2/sep (in-place)
I0810 11:30:04.915277 30323 layer_factory.hpp:77] Creating layer conv3_2/sep/scale
I0810 11:30:04.915406 30323 net.cpp:122] Setting up conv3_2/sep/scale
I0810 11:30:04.915413 30323 net.cpp:129] Top shape: 32 256 28 28 (6422528)
I0810 11:30:04.915416 30323 net.cpp:137] Memory required for data: 1689125376
I0810 11:30:04.915422 30323 layer_factory.hpp:77] Creating layer relu3_2/sep
I0810 11:30:04.915427 30323 net.cpp:84] Creating Layer relu3_2/sep
I0810 11:30:04.915431 30323 net.cpp:406] relu3_2/sep <- conv3_2/sep
I0810 11:30:04.915436 30323 net.cpp:367] relu3_2/sep -> conv3_2/sep (in-place)
I0810 11:30:04.916013 30323 net.cpp:122] Setting up relu3_2/sep
I0810 11:30:04.916023 30323 net.cpp:129] Top shape: 32 256 28 28 (6422528)
I0810 11:30:04.916026 30323 net.cpp:137] Memory required for data: 1714815488
I0810 11:30:04.916030 30323 layer_factory.hpp:77] Creating layer conv4_1/dw
I0810 11:30:04.916040 30323 net.cpp:84] Creating Layer conv4_1/dw
I0810 11:30:04.916044 30323 net.cpp:406] conv4_1/dw <- conv3_2/sep
I0810 11:30:04.916050 30323 net.cpp:380] conv4_1/dw -> conv4_1/dw
I0810 11:30:04.916299 30323 net.cpp:122] Setting up conv4_1/dw
I0810 11:30:04.916307 30323 net.cpp:129] Top shape: 32 256 28 28 (6422528)
I0810 11:30:04.916311 30323 net.cpp:137] Memory required for data: 1740505600
I0810 11:30:04.916316 30323 layer_factory.hpp:77] Creating layer conv4_1/dw/bn
I0810 11:30:04.916321 30323 net.cpp:84] Creating Layer conv4_1/dw/bn
I0810 11:30:04.916326 30323 net.cpp:406] conv4_1/dw/bn <- conv4_1/dw
I0810 11:30:04.916329 30323 net.cpp:367] conv4_1/dw/bn -> conv4_1/dw (in-place)
I0810 11:30:04.916543 30323 net.cpp:122] Setting up conv4_1/dw/bn
I0810 11:30:04.916550 30323 net.cpp:129] Top shape: 32 256 28 28 (6422528)
I0810 11:30:04.916553 30323 net.cpp:137] Memory required for data: 1766195712
I0810 11:30:04.916560 30323 layer_factory.hpp:77] Creating layer conv4_1/dw/scale
I0810 11:30:04.916568 30323 net.cpp:84] Creating Layer conv4_1/dw/scale
I0810 11:30:04.916573 30323 net.cpp:406] conv4_1/dw/scale <- conv4_1/dw
I0810 11:30:04.916577 30323 net.cpp:367] conv4_1/dw/scale -> conv4_1/dw (in-place)
I0810 11:30:04.916622 30323 layer_factory.hpp:77] Creating layer conv4_1/dw/scale
I0810 11:30:04.916751 30323 net.cpp:122] Setting up conv4_1/dw/scale
I0810 11:30:04.916764 30323 net.cpp:129] Top shape: 32 256 28 28 (6422528)
I0810 11:30:04.916767 30323 net.cpp:137] Memory required for data: 1791885824
I0810 11:30:04.916772 30323 layer_factory.hpp:77] Creating layer relu4_1/dw
I0810 11:30:04.916779 30323 net.cpp:84] Creating Layer relu4_1/dw
I0810 11:30:04.916782 30323 net.cpp:406] relu4_1/dw <- conv4_1/dw
I0810 11:30:04.916788 30323 net.cpp:367] relu4_1/dw -> conv4_1/dw (in-place)
I0810 11:30:04.917469 30323 net.cpp:122] Setting up relu4_1/dw
I0810 11:30:04.917479 30323 net.cpp:129] Top shape: 32 256 28 28 (6422528)
I0810 11:30:04.917482 30323 net.cpp:137] Memory required for data: 1817575936
I0810 11:30:04.917486 30323 layer_factory.hpp:77] Creating layer conv4_1/sep
I0810 11:30:04.917497 30323 net.cpp:84] Creating Layer conv4_1/sep
I0810 11:30:04.917501 30323 net.cpp:406] conv4_1/sep <- conv4_1/dw
I0810 11:30:04.917510 30323 net.cpp:380] conv4_1/sep -> conv4_1/sep
I0810 11:30:04.920578 30323 net.cpp:122] Setting up conv4_1/sep
I0810 11:30:04.920594 30323 net.cpp:129] Top shape: 32 256 28 28 (6422528)
I0810 11:30:04.920598 30323 net.cpp:137] Memory required for data: 1843266048
I0810 11:30:04.920604 30323 layer_factory.hpp:77] Creating layer conv4_1/sep/bn
I0810 11:30:04.920611 30323 net.cpp:84] Creating Layer conv4_1/sep/bn
I0810 11:30:04.920615 30323 net.cpp:406] conv4_1/sep/bn <- conv4_1/sep
I0810 11:30:04.920622 30323 net.cpp:367] conv4_1/sep/bn -> conv4_1/sep (in-place)
I0810 11:30:04.920850 30323 net.cpp:122] Setting up conv4_1/sep/bn
I0810 11:30:04.920856 30323 net.cpp:129] Top shape: 32 256 28 28 (6422528)
I0810 11:30:04.920859 30323 net.cpp:137] Memory required for data: 1868956160
I0810 11:30:04.920866 30323 layer_factory.hpp:77] Creating layer conv4_1/sep/scale
I0810 11:30:04.920874 30323 net.cpp:84] Creating Layer conv4_1/sep/scale
I0810 11:30:04.920878 30323 net.cpp:406] conv4_1/sep/scale <- conv4_1/sep
I0810 11:30:04.920883 30323 net.cpp:367] conv4_1/sep/scale -> conv4_1/sep (in-place)
I0810 11:30:04.920929 30323 layer_factory.hpp:77] Creating layer conv4_1/sep/scale
I0810 11:30:04.921062 30323 net.cpp:122] Setting up conv4_1/sep/scale
I0810 11:30:04.921069 30323 net.cpp:129] Top shape: 32 256 28 28 (6422528)
I0810 11:30:04.921072 30323 net.cpp:137] Memory required for data: 1894646272
I0810 11:30:04.921088 30323 layer_factory.hpp:77] Creating layer relu4_1/sep
I0810 11:30:04.921094 30323 net.cpp:84] Creating Layer relu4_1/sep
I0810 11:30:04.921098 30323 net.cpp:406] relu4_1/sep <- conv4_1/sep
I0810 11:30:04.921103 30323 net.cpp:367] relu4_1/sep -> conv4_1/sep (in-place)
I0810 11:30:04.921711 30323 net.cpp:122] Setting up relu4_1/sep
I0810 11:30:04.921723 30323 net.cpp:129] Top shape: 32 256 28 28 (6422528)
I0810 11:30:04.921727 30323 net.cpp:137] Memory required for data: 1920336384
I0810 11:30:04.921731 30323 layer_factory.hpp:77] Creating layer conv4_2/dw
I0810 11:30:04.921741 30323 net.cpp:84] Creating Layer conv4_2/dw
I0810 11:30:04.921746 30323 net.cpp:406] conv4_2/dw <- conv4_1/sep
I0810 11:30:04.921754 30323 net.cpp:380] conv4_2/dw -> conv4_2/dw
I0810 11:30:04.922029 30323 net.cpp:122] Setting up conv4_2/dw
I0810 11:30:04.922036 30323 net.cpp:129] Top shape: 32 256 14 14 (1605632)
I0810 11:30:04.922040 30323 net.cpp:137] Memory required for data: 1926758912
I0810 11:30:04.922044 30323 layer_factory.hpp:77] Creating layer conv4_2/dw/bn
I0810 11:30:04.922052 30323 net.cpp:84] Creating Layer conv4_2/dw/bn
I0810 11:30:04.922056 30323 net.cpp:406] conv4_2/dw/bn <- conv4_2/dw
I0810 11:30:04.922061 30323 net.cpp:367] conv4_2/dw/bn -> conv4_2/dw (in-place)
I0810 11:30:04.922278 30323 net.cpp:122] Setting up conv4_2/dw/bn
I0810 11:30:04.922286 30323 net.cpp:129] Top shape: 32 256 14 14 (1605632)
I0810 11:30:04.922288 30323 net.cpp:137] Memory required for data: 1933181440
I0810 11:30:04.922296 30323 layer_factory.hpp:77] Creating layer conv4_2/dw/scale
I0810 11:30:04.922303 30323 net.cpp:84] Creating Layer conv4_2/dw/scale
I0810 11:30:04.922307 30323 net.cpp:406] conv4_2/dw/scale <- conv4_2/dw
I0810 11:30:04.922312 30323 net.cpp:367] conv4_2/dw/scale -> conv4_2/dw (in-place)
I0810 11:30:04.922361 30323 layer_factory.hpp:77] Creating layer conv4_2/dw/scale
I0810 11:30:04.922484 30323 net.cpp:122] Setting up conv4_2/dw/scale
I0810 11:30:04.922492 30323 net.cpp:129] Top shape: 32 256 14 14 (1605632)
I0810 11:30:04.922494 30323 net.cpp:137] Memory required for data: 1939603968
I0810 11:30:04.922499 30323 layer_factory.hpp:77] Creating layer relu4_2/dw
I0810 11:30:04.922507 30323 net.cpp:84] Creating Layer relu4_2/dw
I0810 11:30:04.922510 30323 net.cpp:406] relu4_2/dw <- conv4_2/dw
I0810 11:30:04.922515 30323 net.cpp:367] relu4_2/dw -> conv4_2/dw (in-place)
I0810 11:30:04.923080 30323 net.cpp:122] Setting up relu4_2/dw
I0810 11:30:04.923090 30323 net.cpp:129] Top shape: 32 256 14 14 (1605632)
I0810 11:30:04.923094 30323 net.cpp:137] Memory required for data: 1946026496
I0810 11:30:04.923096 30323 layer_factory.hpp:77] Creating layer conv4_2/sep
I0810 11:30:04.923106 30323 net.cpp:84] Creating Layer conv4_2/sep
I0810 11:30:04.923111 30323 net.cpp:406] conv4_2/sep <- conv4_2/dw
I0810 11:30:04.923117 30323 net.cpp:380] conv4_2/sep -> conv4_2/sep
I0810 11:30:04.926735 30323 net.cpp:122] Setting up conv4_2/sep
I0810 11:30:04.926750 30323 net.cpp:129] Top shape: 32 512 14 14 (3211264)
I0810 11:30:04.926753 30323 net.cpp:137] Memory required for data: 1958871552
I0810 11:30:04.926759 30323 layer_factory.hpp:77] Creating layer conv4_2/sep/bn
I0810 11:30:04.926765 30323 net.cpp:84] Creating Layer conv4_2/sep/bn
I0810 11:30:04.926770 30323 net.cpp:406] conv4_2/sep/bn <- conv4_2/sep
I0810 11:30:04.926779 30323 net.cpp:367] conv4_2/sep/bn -> conv4_2/sep (in-place)
I0810 11:30:04.927016 30323 net.cpp:122] Setting up conv4_2/sep/bn
I0810 11:30:04.927022 30323 net.cpp:129] Top shape: 32 512 14 14 (3211264)
I0810 11:30:04.927026 30323 net.cpp:137] Memory required for data: 1971716608
I0810 11:30:04.927032 30323 layer_factory.hpp:77] Creating layer conv4_2/sep/scale
I0810 11:30:04.927039 30323 net.cpp:84] Creating Layer conv4_2/sep/scale
I0810 11:30:04.927042 30323 net.cpp:406] conv4_2/sep/scale <- conv4_2/sep
I0810 11:30:04.927049 30323 net.cpp:367] conv4_2/sep/scale -> conv4_2/sep (in-place)
I0810 11:30:04.927090 30323 layer_factory.hpp:77] Creating layer conv4_2/sep/scale
I0810 11:30:04.927222 30323 net.cpp:122] Setting up conv4_2/sep/scale
I0810 11:30:04.927229 30323 net.cpp:129] Top shape: 32 512 14 14 (3211264)
I0810 11:30:04.927232 30323 net.cpp:137] Memory required for data: 1984561664
I0810 11:30:04.927237 30323 layer_factory.hpp:77] Creating layer relu4_2/sep
I0810 11:30:04.927243 30323 net.cpp:84] Creating Layer relu4_2/sep
I0810 11:30:04.927248 30323 net.cpp:406] relu4_2/sep <- conv4_2/sep
I0810 11:30:04.927253 30323 net.cpp:367] relu4_2/sep -> conv4_2/sep (in-place)
I0810 11:30:04.927834 30323 net.cpp:122] Setting up relu4_2/sep
I0810 11:30:04.927844 30323 net.cpp:129] Top shape: 32 512 14 14 (3211264)
I0810 11:30:04.927846 30323 net.cpp:137] Memory required for data: 1997406720
I0810 11:30:04.927850 30323 layer_factory.hpp:77] Creating layer conv5_1/dw
I0810 11:30:04.927860 30323 net.cpp:84] Creating Layer conv5_1/dw
I0810 11:30:04.927865 30323 net.cpp:406] conv5_1/dw <- conv4_2/sep
I0810 11:30:04.927870 30323 net.cpp:380] conv5_1/dw -> conv5_1/dw
I0810 11:30:04.928161 30323 net.cpp:122] Setting up conv5_1/dw
I0810 11:30:04.928169 30323 net.cpp:129] Top shape: 32 512 14 14 (3211264)
I0810 11:30:04.928174 30323 net.cpp:137] Memory required for data: 2010251776
I0810 11:30:04.928177 30323 layer_factory.hpp:77] Creating layer conv5_1/dw/bn
I0810 11:30:04.928184 30323 net.cpp:84] Creating Layer conv5_1/dw/bn
I0810 11:30:04.928189 30323 net.cpp:406] conv5_1/dw/bn <- conv5_1/dw
I0810 11:30:04.928194 30323 net.cpp:367] conv5_1/dw/bn -> conv5_1/dw (in-place)
I0810 11:30:04.928438 30323 net.cpp:122] Setting up conv5_1/dw/bn
I0810 11:30:04.928447 30323 net.cpp:129] Top shape: 32 512 14 14 (3211264)
I0810 11:30:04.928449 30323 net.cpp:137] Memory required for data: 2023096832
I0810 11:30:04.928455 30323 layer_factory.hpp:77] Creating layer conv5_1/dw/scale
I0810 11:30:04.928463 30323 net.cpp:84] Creating Layer conv5_1/dw/scale
I0810 11:30:04.928473 30323 net.cpp:406] conv5_1/dw/scale <- conv5_1/dw
I0810 11:30:04.928479 30323 net.cpp:367] conv5_1/dw/scale -> conv5_1/dw (in-place)
I0810 11:30:04.928522 30323 layer_factory.hpp:77] Creating layer conv5_1/dw/scale
I0810 11:30:04.928656 30323 net.cpp:122] Setting up conv5_1/dw/scale
I0810 11:30:04.928663 30323 net.cpp:129] Top shape: 32 512 14 14 (3211264)
I0810 11:30:04.928666 30323 net.cpp:137] Memory required for data: 2035941888
I0810 11:30:04.928671 30323 layer_factory.hpp:77] Creating layer relu5_1/dw
I0810 11:30:04.928676 30323 net.cpp:84] Creating Layer relu5_1/dw
I0810 11:30:04.928680 30323 net.cpp:406] relu5_1/dw <- conv5_1/dw
I0810 11:30:04.928686 30323 net.cpp:367] relu5_1/dw -> conv5_1/dw (in-place)
I0810 11:30:04.929447 30323 net.cpp:122] Setting up relu5_1/dw
I0810 11:30:04.929461 30323 net.cpp:129] Top shape: 32 512 14 14 (3211264)
I0810 11:30:04.929464 30323 net.cpp:137] Memory required for data: 2048786944
I0810 11:30:04.929468 30323 layer_factory.hpp:77] Creating layer conv5_1/sep
I0810 11:30:04.929478 30323 net.cpp:84] Creating Layer conv5_1/sep
I0810 11:30:04.929482 30323 net.cpp:406] conv5_1/sep <- conv5_1/dw
I0810 11:30:04.929489 30323 net.cpp:380] conv5_1/sep -> conv5_1/sep
I0810 11:30:04.935022 30323 net.cpp:122] Setting up conv5_1/sep
I0810 11:30:04.935040 30323 net.cpp:129] Top shape: 32 512 14 14 (3211264)
I0810 11:30:04.935043 30323 net.cpp:137] Memory required for data: 2061632000
I0810 11:30:04.935050 30323 layer_factory.hpp:77] Creating layer conv5_1/sep/bn
I0810 11:30:04.935056 30323 net.cpp:84] Creating Layer conv5_1/sep/bn
I0810 11:30:04.935060 30323 net.cpp:406] conv5_1/sep/bn <- conv5_1/sep
I0810 11:30:04.935070 30323 net.cpp:367] conv5_1/sep/bn -> conv5_1/sep (in-place)
I0810 11:30:04.935307 30323 net.cpp:122] Setting up conv5_1/sep/bn
I0810 11:30:04.935313 30323 net.cpp:129] Top shape: 32 512 14 14 (3211264)
I0810 11:30:04.935317 30323 net.cpp:137] Memory required for data: 2074477056
I0810 11:30:04.935323 30323 layer_factory.hpp:77] Creating layer conv5_1/sep/scale
I0810 11:30:04.935330 30323 net.cpp:84] Creating Layer conv5_1/sep/scale
I0810 11:30:04.935334 30323 net.cpp:406] conv5_1/sep/scale <- conv5_1/sep
I0810 11:30:04.935341 30323 net.cpp:367] conv5_1/sep/scale -> conv5_1/sep (in-place)
I0810 11:30:04.935384 30323 layer_factory.hpp:77] Creating layer conv5_1/sep/scale
I0810 11:30:04.935518 30323 net.cpp:122] Setting up conv5_1/sep/scale
I0810 11:30:04.935526 30323 net.cpp:129] Top shape: 32 512 14 14 (3211264)
I0810 11:30:04.935529 30323 net.cpp:137] Memory required for data: 2087322112
I0810 11:30:04.935535 30323 layer_factory.hpp:77] Creating layer relu5_1/sep
I0810 11:30:04.935541 30323 net.cpp:84] Creating Layer relu5_1/sep
I0810 11:30:04.935546 30323 net.cpp:406] relu5_1/sep <- conv5_1/sep
I0810 11:30:04.935550 30323 net.cpp:367] relu5_1/sep -> conv5_1/sep (in-place)
I0810 11:30:04.936133 30323 net.cpp:122] Setting up relu5_1/sep
I0810 11:30:04.936144 30323 net.cpp:129] Top shape: 32 512 14 14 (3211264)
I0810 11:30:04.936147 30323 net.cpp:137] Memory required for data: 2100167168
I0810 11:30:04.936151 30323 layer_factory.hpp:77] Creating layer conv5_2/dw
I0810 11:30:04.936162 30323 net.cpp:84] Creating Layer conv5_2/dw
I0810 11:30:04.936167 30323 net.cpp:406] conv5_2/dw <- conv5_1/sep
I0810 11:30:04.936174 30323 net.cpp:380] conv5_2/dw -> conv5_2/dw
I0810 11:30:04.936447 30323 net.cpp:122] Setting up conv5_2/dw
I0810 11:30:04.936455 30323 net.cpp:129] Top shape: 32 512 14 14 (3211264)
I0810 11:30:04.936458 30323 net.cpp:137] Memory required for data: 2113012224
I0810 11:30:04.936463 30323 layer_factory.hpp:77] Creating layer conv5_2/dw/bn
I0810 11:30:04.936471 30323 net.cpp:84] Creating Layer conv5_2/dw/bn
I0810 11:30:04.936475 30323 net.cpp:406] conv5_2/dw/bn <- conv5_2/dw
I0810 11:30:04.936480 30323 net.cpp:367] conv5_2/dw/bn -> conv5_2/dw (in-place)
I0810 11:30:04.936700 30323 net.cpp:122] Setting up conv5_2/dw/bn
I0810 11:30:04.936707 30323 net.cpp:129] Top shape: 32 512 14 14 (3211264)
I0810 11:30:04.936714 30323 net.cpp:137] Memory required for data: 2125857280
I0810 11:30:04.936722 30323 layer_factory.hpp:77] Creating layer conv5_2/dw/scale
I0810 11:30:04.936738 30323 net.cpp:84] Creating Layer conv5_2/dw/scale
I0810 11:30:04.936741 30323 net.cpp:406] conv5_2/dw/scale <- conv5_2/dw
I0810 11:30:04.936746 30323 net.cpp:367] conv5_2/dw/scale -> conv5_2/dw (in-place)
I0810 11:30:04.936789 30323 layer_factory.hpp:77] Creating layer conv5_2/dw/scale
I0810 11:30:04.936928 30323 net.cpp:122] Setting up conv5_2/dw/scale
I0810 11:30:04.936935 30323 net.cpp:129] Top shape: 32 512 14 14 (3211264)
I0810 11:30:04.936939 30323 net.cpp:137] Memory required for data: 2138702336
I0810 11:30:04.936944 30323 layer_factory.hpp:77] Creating layer relu5_2/dw
I0810 11:30:04.936950 30323 net.cpp:84] Creating Layer relu5_2/dw
I0810 11:30:04.936954 30323 net.cpp:406] relu5_2/dw <- conv5_2/dw
I0810 11:30:04.936960 30323 net.cpp:367] relu5_2/dw -> conv5_2/dw (in-place)
I0810 11:30:04.938089 30323 net.cpp:122] Setting up relu5_2/dw
I0810 11:30:04.938107 30323 net.cpp:129] Top shape: 32 512 14 14 (3211264)
I0810 11:30:04.938110 30323 net.cpp:137] Memory required for data: 2151547392
I0810 11:30:04.938115 30323 layer_factory.hpp:77] Creating layer conv5_2/sep
I0810 11:30:04.938127 30323 net.cpp:84] Creating Layer conv5_2/sep
I0810 11:30:04.938133 30323 net.cpp:406] conv5_2/sep <- conv5_2/dw
I0810 11:30:04.938141 30323 net.cpp:380] conv5_2/sep -> conv5_2/sep
I0810 11:30:04.943308 30323 net.cpp:122] Setting up conv5_2/sep
I0810 11:30:04.943331 30323 net.cpp:129] Top shape: 32 512 14 14 (3211264)
I0810 11:30:04.943336 30323 net.cpp:137] Memory required for data: 2164392448
I0810 11:30:04.943341 30323 layer_factory.hpp:77] Creating layer conv5_2/sep/bn
I0810 11:30:04.943348 30323 net.cpp:84] Creating Layer conv5_2/sep/bn
I0810 11:30:04.943353 30323 net.cpp:406] conv5_2/sep/bn <- conv5_2/sep
I0810 11:30:04.943361 30323 net.cpp:367] conv5_2/sep/bn -> conv5_2/sep (in-place)
I0810 11:30:04.943639 30323 net.cpp:122] Setting up conv5_2/sep/bn
I0810 11:30:04.943661 30323 net.cpp:129] Top shape: 32 512 14 14 (3211264)
I0810 11:30:04.943665 30323 net.cpp:137] Memory required for data: 2177237504
I0810 11:30:04.943680 30323 layer_factory.hpp:77] Creating layer conv5_2/sep/scale
I0810 11:30:04.943688 30323 net.cpp:84] Creating Layer conv5_2/sep/scale
I0810 11:30:04.943692 30323 net.cpp:406] conv5_2/sep/scale <- conv5_2/sep
I0810 11:30:04.943698 30323 net.cpp:367] conv5_2/sep/scale -> conv5_2/sep (in-place)
I0810 11:30:04.943747 30323 layer_factory.hpp:77] Creating layer conv5_2/sep/scale
I0810 11:30:04.943895 30323 net.cpp:122] Setting up conv5_2/sep/scale
I0810 11:30:04.943903 30323 net.cpp:129] Top shape: 32 512 14 14 (3211264)
I0810 11:30:04.943907 30323 net.cpp:137] Memory required for data: 2190082560
I0810 11:30:04.943913 30323 layer_factory.hpp:77] Creating layer relu5_2/sep
I0810 11:30:04.943920 30323 net.cpp:84] Creating Layer relu5_2/sep
I0810 11:30:04.943924 30323 net.cpp:406] relu5_2/sep <- conv5_2/sep
I0810 11:30:04.943930 30323 net.cpp:367] relu5_2/sep -> conv5_2/sep (in-place)
I0810 11:30:04.944548 30323 net.cpp:122] Setting up relu5_2/sep
I0810 11:30:04.944558 30323 net.cpp:129] Top shape: 32 512 14 14 (3211264)
I0810 11:30:04.944562 30323 net.cpp:137] Memory required for data: 2202927616
I0810 11:30:04.944566 30323 layer_factory.hpp:77] Creating layer conv5_3/dw
I0810 11:30:04.944577 30323 net.cpp:84] Creating Layer conv5_3/dw
I0810 11:30:04.944581 30323 net.cpp:406] conv5_3/dw <- conv5_2/sep
I0810 11:30:04.944589 30323 net.cpp:380] conv5_3/dw -> conv5_3/dw
I0810 11:30:04.944891 30323 net.cpp:122] Setting up conv5_3/dw
I0810 11:30:04.944900 30323 net.cpp:129] Top shape: 32 512 14 14 (3211264)
I0810 11:30:04.944903 30323 net.cpp:137] Memory required for data: 2215772672
I0810 11:30:04.944908 30323 layer_factory.hpp:77] Creating layer conv5_3/dw/bn
I0810 11:30:04.944914 30323 net.cpp:84] Creating Layer conv5_3/dw/bn
I0810 11:30:04.944918 30323 net.cpp:406] conv5_3/dw/bn <- conv5_3/dw
I0810 11:30:04.944926 30323 net.cpp:367] conv5_3/dw/bn -> conv5_3/dw (in-place)
I0810 11:30:04.945178 30323 net.cpp:122] Setting up conv5_3/dw/bn
I0810 11:30:04.945185 30323 net.cpp:129] Top shape: 32 512 14 14 (3211264)
I0810 11:30:04.945188 30323 net.cpp:137] Memory required for data: 2228617728
I0810 11:30:04.945196 30323 layer_factory.hpp:77] Creating layer conv5_3/dw/scale
I0810 11:30:04.945204 30323 net.cpp:84] Creating Layer conv5_3/dw/scale
I0810 11:30:04.945207 30323 net.cpp:406] conv5_3/dw/scale <- conv5_3/dw
I0810 11:30:04.945214 30323 net.cpp:367] conv5_3/dw/scale -> conv5_3/dw (in-place)
I0810 11:30:04.945258 30323 layer_factory.hpp:77] Creating layer conv5_3/dw/scale
I0810 11:30:04.945402 30323 net.cpp:122] Setting up conv5_3/dw/scale
I0810 11:30:04.945413 30323 net.cpp:129] Top shape: 32 512 14 14 (3211264)
I0810 11:30:04.945417 30323 net.cpp:137] Memory required for data: 2241462784
I0810 11:30:04.945423 30323 layer_factory.hpp:77] Creating layer relu5_3/dw
I0810 11:30:04.945428 30323 net.cpp:84] Creating Layer relu5_3/dw
I0810 11:30:04.945432 30323 net.cpp:406] relu5_3/dw <- conv5_3/dw
I0810 11:30:04.945437 30323 net.cpp:367] relu5_3/dw -> conv5_3/dw (in-place)
I0810 11:30:04.946280 30323 net.cpp:122] Setting up relu5_3/dw
I0810 11:30:04.946293 30323 net.cpp:129] Top shape: 32 512 14 14 (3211264)
I0810 11:30:04.946298 30323 net.cpp:137] Memory required for data: 2254307840
I0810 11:30:04.946302 30323 layer_factory.hpp:77] Creating layer conv5_3/sep
I0810 11:30:04.946313 30323 net.cpp:84] Creating Layer conv5_3/sep
I0810 11:30:04.946318 30323 net.cpp:406] conv5_3/sep <- conv5_3/dw
I0810 11:30:04.946327 30323 net.cpp:380] conv5_3/sep -> conv5_3/sep
I0810 11:30:04.952886 30323 net.cpp:122] Setting up conv5_3/sep
I0810 11:30:04.952903 30323 net.cpp:129] Top shape: 32 512 14 14 (3211264)
I0810 11:30:04.952906 30323 net.cpp:137] Memory required for data: 2267152896
I0810 11:30:04.952913 30323 layer_factory.hpp:77] Creating layer conv5_3/sep/bn
I0810 11:30:04.952924 30323 net.cpp:84] Creating Layer conv5_3/sep/bn
I0810 11:30:04.952929 30323 net.cpp:406] conv5_3/sep/bn <- conv5_3/sep
I0810 11:30:04.952934 30323 net.cpp:367] conv5_3/sep/bn -> conv5_3/sep (in-place)
I0810 11:30:04.953186 30323 net.cpp:122] Setting up conv5_3/sep/bn
I0810 11:30:04.953193 30323 net.cpp:129] Top shape: 32 512 14 14 (3211264)
I0810 11:30:04.953197 30323 net.cpp:137] Memory required for data: 2279997952
I0810 11:30:04.953204 30323 layer_factory.hpp:77] Creating layer conv5_3/sep/scale
I0810 11:30:04.953212 30323 net.cpp:84] Creating Layer conv5_3/sep/scale
I0810 11:30:04.953215 30323 net.cpp:406] conv5_3/sep/scale <- conv5_3/sep
I0810 11:30:04.953223 30323 net.cpp:367] conv5_3/sep/scale -> conv5_3/sep (in-place)
I0810 11:30:04.953266 30323 layer_factory.hpp:77] Creating layer conv5_3/sep/scale
I0810 11:30:04.953411 30323 net.cpp:122] Setting up conv5_3/sep/scale
I0810 11:30:04.953419 30323 net.cpp:129] Top shape: 32 512 14 14 (3211264)
I0810 11:30:04.953423 30323 net.cpp:137] Memory required for data: 2292843008
I0810 11:30:04.953428 30323 layer_factory.hpp:77] Creating layer relu5_3/sep
I0810 11:30:04.953434 30323 net.cpp:84] Creating Layer relu5_3/sep
I0810 11:30:04.953438 30323 net.cpp:406] relu5_3/sep <- conv5_3/sep
I0810 11:30:04.953447 30323 net.cpp:367] relu5_3/sep -> conv5_3/sep (in-place)
I0810 11:30:04.954151 30323 net.cpp:122] Setting up relu5_3/sep
I0810 11:30:04.954164 30323 net.cpp:129] Top shape: 32 512 14 14 (3211264)
I0810 11:30:04.954166 30323 net.cpp:137] Memory required for data: 2305688064
I0810 11:30:04.954170 30323 layer_factory.hpp:77] Creating layer conv5_4/dw
I0810 11:30:04.954182 30323 net.cpp:84] Creating Layer conv5_4/dw
I0810 11:30:04.954187 30323 net.cpp:406] conv5_4/dw <- conv5_3/sep
I0810 11:30:04.954193 30323 net.cpp:380] conv5_4/dw -> conv5_4/dw
I0810 11:30:04.954486 30323 net.cpp:122] Setting up conv5_4/dw
I0810 11:30:04.954494 30323 net.cpp:129] Top shape: 32 512 14 14 (3211264)
I0810 11:30:04.954499 30323 net.cpp:137] Memory required for data: 2318533120
I0810 11:30:04.954504 30323 layer_factory.hpp:77] Creating layer conv5_4/dw/bn
I0810 11:30:04.954509 30323 net.cpp:84] Creating Layer conv5_4/dw/bn
I0810 11:30:04.954519 30323 net.cpp:406] conv5_4/dw/bn <- conv5_4/dw
I0810 11:30:04.954524 30323 net.cpp:367] conv5_4/dw/bn -> conv5_4/dw (in-place)
I0810 11:30:04.954762 30323 net.cpp:122] Setting up conv5_4/dw/bn
I0810 11:30:04.954769 30323 net.cpp:129] Top shape: 32 512 14 14 (3211264)
I0810 11:30:04.954772 30323 net.cpp:137] Memory required for data: 2331378176
I0810 11:30:04.954780 30323 layer_factory.hpp:77] Creating layer conv5_4/dw/scale
I0810 11:30:04.954788 30323 net.cpp:84] Creating Layer conv5_4/dw/scale
I0810 11:30:04.954792 30323 net.cpp:406] conv5_4/dw/scale <- conv5_4/dw
I0810 11:30:04.954797 30323 net.cpp:367] conv5_4/dw/scale -> conv5_4/dw (in-place)
I0810 11:30:04.954843 30323 layer_factory.hpp:77] Creating layer conv5_4/dw/scale
I0810 11:30:04.954989 30323 net.cpp:122] Setting up conv5_4/dw/scale
I0810 11:30:04.954996 30323 net.cpp:129] Top shape: 32 512 14 14 (3211264)
I0810 11:30:04.955000 30323 net.cpp:137] Memory required for data: 2344223232
I0810 11:30:04.955006 30323 layer_factory.hpp:77] Creating layer relu5_4/dw
I0810 11:30:04.955011 30323 net.cpp:84] Creating Layer relu5_4/dw
I0810 11:30:04.955015 30323 net.cpp:406] relu5_4/dw <- conv5_4/dw
I0810 11:30:04.955022 30323 net.cpp:367] relu5_4/dw -> conv5_4/dw (in-place)
I0810 11:30:04.956116 30323 net.cpp:122] Setting up relu5_4/dw
I0810 11:30:04.956131 30323 net.cpp:129] Top shape: 32 512 14 14 (3211264)
I0810 11:30:04.956135 30323 net.cpp:137] Memory required for data: 2357068288
I0810 11:30:04.956140 30323 layer_factory.hpp:77] Creating layer conv5_4/sep
I0810 11:30:04.956151 30323 net.cpp:84] Creating Layer conv5_4/sep
I0810 11:30:04.956154 30323 net.cpp:406] conv5_4/sep <- conv5_4/dw
I0810 11:30:04.956161 30323 net.cpp:380] conv5_4/sep -> conv5_4/sep
I0810 11:30:04.961299 30323 net.cpp:122] Setting up conv5_4/sep
I0810 11:30:04.961315 30323 net.cpp:129] Top shape: 32 512 14 14 (3211264)
I0810 11:30:04.961319 30323 net.cpp:137] Memory required for data: 2369913344
I0810 11:30:04.961325 30323 layer_factory.hpp:77] Creating layer conv5_4/sep/bn
I0810 11:30:04.961334 30323 net.cpp:84] Creating Layer conv5_4/sep/bn
I0810 11:30:04.961338 30323 net.cpp:406] conv5_4/sep/bn <- conv5_4/sep
I0810 11:30:04.961344 30323 net.cpp:367] conv5_4/sep/bn -> conv5_4/sep (in-place)
I0810 11:30:04.961596 30323 net.cpp:122] Setting up conv5_4/sep/bn
I0810 11:30:04.961603 30323 net.cpp:129] Top shape: 32 512 14 14 (3211264)
I0810 11:30:04.961606 30323 net.cpp:137] Memory required for data: 2382758400
I0810 11:30:04.961637 30323 layer_factory.hpp:77] Creating layer conv5_4/sep/scale
I0810 11:30:04.961647 30323 net.cpp:84] Creating Layer conv5_4/sep/scale
I0810 11:30:04.961650 30323 net.cpp:406] conv5_4/sep/scale <- conv5_4/sep
I0810 11:30:04.961658 30323 net.cpp:367] conv5_4/sep/scale -> conv5_4/sep (in-place)
I0810 11:30:04.961707 30323 layer_factory.hpp:77] Creating layer conv5_4/sep/scale
I0810 11:30:04.961864 30323 net.cpp:122] Setting up conv5_4/sep/scale
I0810 11:30:04.961872 30323 net.cpp:129] Top shape: 32 512 14 14 (3211264)
I0810 11:30:04.961876 30323 net.cpp:137] Memory required for data: 2395603456
I0810 11:30:04.961884 30323 layer_factory.hpp:77] Creating layer relu5_4/sep
I0810 11:30:04.961889 30323 net.cpp:84] Creating Layer relu5_4/sep
I0810 11:30:04.961894 30323 net.cpp:406] relu5_4/sep <- conv5_4/sep
I0810 11:30:04.961900 30323 net.cpp:367] relu5_4/sep -> conv5_4/sep (in-place)
I0810 11:30:04.963039 30323 net.cpp:122] Setting up relu5_4/sep
I0810 11:30:04.963054 30323 net.cpp:129] Top shape: 32 512 14 14 (3211264)
I0810 11:30:04.963058 30323 net.cpp:137] Memory required for data: 2408448512
I0810 11:30:04.963063 30323 layer_factory.hpp:77] Creating layer conv5_5/dw
I0810 11:30:04.963074 30323 net.cpp:84] Creating Layer conv5_5/dw
I0810 11:30:04.963078 30323 net.cpp:406] conv5_5/dw <- conv5_4/sep
I0810 11:30:04.963085 30323 net.cpp:380] conv5_5/dw -> conv5_5/dw
I0810 11:30:04.963379 30323 net.cpp:122] Setting up conv5_5/dw
I0810 11:30:04.963387 30323 net.cpp:129] Top shape: 32 512 14 14 (3211264)
I0810 11:30:04.963397 30323 net.cpp:137] Memory required for data: 2421293568
I0810 11:30:04.963402 30323 layer_factory.hpp:77] Creating layer conv5_5/dw/bn
I0810 11:30:04.963407 30323 net.cpp:84] Creating Layer conv5_5/dw/bn
I0810 11:30:04.963413 30323 net.cpp:406] conv5_5/dw/bn <- conv5_5/dw
I0810 11:30:04.963420 30323 net.cpp:367] conv5_5/dw/bn -> conv5_5/dw (in-place)
I0810 11:30:04.963662 30323 net.cpp:122] Setting up conv5_5/dw/bn
I0810 11:30:04.963670 30323 net.cpp:129] Top shape: 32 512 14 14 (3211264)
I0810 11:30:04.963673 30323 net.cpp:137] Memory required for data: 2434138624
I0810 11:30:04.963699 30323 layer_factory.hpp:77] Creating layer conv5_5/dw/scale
I0810 11:30:04.963706 30323 net.cpp:84] Creating Layer conv5_5/dw/scale
I0810 11:30:04.963711 30323 net.cpp:406] conv5_5/dw/scale <- conv5_5/dw
I0810 11:30:04.963716 30323 net.cpp:367] conv5_5/dw/scale -> conv5_5/dw (in-place)
I0810 11:30:04.963764 30323 layer_factory.hpp:77] Creating layer conv5_5/dw/scale
I0810 11:30:04.963908 30323 net.cpp:122] Setting up conv5_5/dw/scale
I0810 11:30:04.963917 30323 net.cpp:129] Top shape: 32 512 14 14 (3211264)
I0810 11:30:04.963919 30323 net.cpp:137] Memory required for data: 2446983680
I0810 11:30:04.963925 30323 layer_factory.hpp:77] Creating layer relu5_5/dw
I0810 11:30:04.963930 30323 net.cpp:84] Creating Layer relu5_5/dw
I0810 11:30:04.963935 30323 net.cpp:406] relu5_5/dw <- conv5_5/dw
I0810 11:30:04.963941 30323 net.cpp:367] relu5_5/dw -> conv5_5/dw (in-place)
I0810 11:30:04.964591 30323 net.cpp:122] Setting up relu5_5/dw
I0810 11:30:04.964603 30323 net.cpp:129] Top shape: 32 512 14 14 (3211264)
I0810 11:30:04.964607 30323 net.cpp:137] Memory required for data: 2459828736
I0810 11:30:04.964612 30323 layer_factory.hpp:77] Creating layer conv5_5/sep
I0810 11:30:04.964622 30323 net.cpp:84] Creating Layer conv5_5/sep
I0810 11:30:04.964625 30323 net.cpp:406] conv5_5/sep <- conv5_5/dw
I0810 11:30:04.964632 30323 net.cpp:380] conv5_5/sep -> conv5_5/sep
I0810 11:30:04.970724 30323 net.cpp:122] Setting up conv5_5/sep
I0810 11:30:04.970741 30323 net.cpp:129] Top shape: 32 512 14 14 (3211264)
I0810 11:30:04.970744 30323 net.cpp:137] Memory required for data: 2472673792
I0810 11:30:04.970752 30323 layer_factory.hpp:77] Creating layer conv5_5/sep/bn
I0810 11:30:04.970759 30323 net.cpp:84] Creating Layer conv5_5/sep/bn
I0810 11:30:04.970764 30323 net.cpp:406] conv5_5/sep/bn <- conv5_5/sep
I0810 11:30:04.970772 30323 net.cpp:367] conv5_5/sep/bn -> conv5_5/sep (in-place)
I0810 11:30:04.971024 30323 net.cpp:122] Setting up conv5_5/sep/bn
I0810 11:30:04.971031 30323 net.cpp:129] Top shape: 32 512 14 14 (3211264)
I0810 11:30:04.971035 30323 net.cpp:137] Memory required for data: 2485518848
I0810 11:30:04.971042 30323 layer_factory.hpp:77] Creating layer conv5_5/sep/scale
I0810 11:30:04.971051 30323 net.cpp:84] Creating Layer conv5_5/sep/scale
I0810 11:30:04.971055 30323 net.cpp:406] conv5_5/sep/scale <- conv5_5/sep
I0810 11:30:04.971060 30323 net.cpp:367] conv5_5/sep/scale -> conv5_5/sep (in-place)
I0810 11:30:04.971108 30323 layer_factory.hpp:77] Creating layer conv5_5/sep/scale
I0810 11:30:04.971256 30323 net.cpp:122] Setting up conv5_5/sep/scale
I0810 11:30:04.971263 30323 net.cpp:129] Top shape: 32 512 14 14 (3211264)
I0810 11:30:04.971266 30323 net.cpp:137] Memory required for data: 2498363904
I0810 11:30:04.971272 30323 layer_factory.hpp:77] Creating layer relu5_5/sep
I0810 11:30:04.971280 30323 net.cpp:84] Creating Layer relu5_5/sep
I0810 11:30:04.971284 30323 net.cpp:406] relu5_5/sep <- conv5_5/sep
I0810 11:30:04.971289 30323 net.cpp:367] relu5_5/sep -> conv5_5/sep (in-place)
I0810 11:30:04.972142 30323 net.cpp:122] Setting up relu5_5/sep
I0810 11:30:04.972157 30323 net.cpp:129] Top shape: 32 512 14 14 (3211264)
I0810 11:30:04.972160 30323 net.cpp:137] Memory required for data: 2511208960
I0810 11:30:04.972164 30323 layer_factory.hpp:77] Creating layer conv5_6/dw
I0810 11:30:04.972175 30323 net.cpp:84] Creating Layer conv5_6/dw
I0810 11:30:04.972180 30323 net.cpp:406] conv5_6/dw <- conv5_5/sep
I0810 11:30:04.972188 30323 net.cpp:380] conv5_6/dw -> conv5_6/dw
I0810 11:30:04.972491 30323 net.cpp:122] Setting up conv5_6/dw
I0810 11:30:04.972499 30323 net.cpp:129] Top shape: 32 512 7 7 (802816)
I0810 11:30:04.972503 30323 net.cpp:137] Memory required for data: 2514420224
I0810 11:30:04.972508 30323 layer_factory.hpp:77] Creating layer conv5_6/dw/bn
I0810 11:30:04.972515 30323 net.cpp:84] Creating Layer conv5_6/dw/bn
I0810 11:30:04.972520 30323 net.cpp:406] conv5_6/dw/bn <- conv5_6/dw
I0810 11:30:04.972525 30323 net.cpp:367] conv5_6/dw/bn -> conv5_6/dw (in-place)
I0810 11:30:04.972774 30323 net.cpp:122] Setting up conv5_6/dw/bn
I0810 11:30:04.972780 30323 net.cpp:129] Top shape: 32 512 7 7 (802816)
I0810 11:30:04.972784 30323 net.cpp:137] Memory required for data: 2517631488
I0810 11:30:04.972791 30323 layer_factory.hpp:77] Creating layer conv5_6/dw/scale
I0810 11:30:04.972800 30323 net.cpp:84] Creating Layer conv5_6/dw/scale
I0810 11:30:04.972805 30323 net.cpp:406] conv5_6/dw/scale <- conv5_6/dw
I0810 11:30:04.972810 30323 net.cpp:367] conv5_6/dw/scale -> conv5_6/dw (in-place)
I0810 11:30:04.972856 30323 layer_factory.hpp:77] Creating layer conv5_6/dw/scale
I0810 11:30:04.973001 30323 net.cpp:122] Setting up conv5_6/dw/scale
I0810 11:30:04.973007 30323 net.cpp:129] Top shape: 32 512 7 7 (802816)
I0810 11:30:04.973011 30323 net.cpp:137] Memory required for data: 2520842752
I0810 11:30:04.973016 30323 layer_factory.hpp:77] Creating layer relu5_6/dw
I0810 11:30:04.973022 30323 net.cpp:84] Creating Layer relu5_6/dw
I0810 11:30:04.973026 30323 net.cpp:406] relu5_6/dw <- conv5_6/dw
I0810 11:30:04.973032 30323 net.cpp:367] relu5_6/dw -> conv5_6/dw (in-place)
I0810 11:30:04.973666 30323 net.cpp:122] Setting up relu5_6/dw
I0810 11:30:04.973678 30323 net.cpp:129] Top shape: 32 512 7 7 (802816)
I0810 11:30:04.973682 30323 net.cpp:137] Memory required for data: 2524054016
I0810 11:30:04.973686 30323 layer_factory.hpp:77] Creating layer conv5_6/sep
I0810 11:30:04.973697 30323 net.cpp:84] Creating Layer conv5_6/sep
I0810 11:30:04.973701 30323 net.cpp:406] conv5_6/sep <- conv5_6/dw
I0810 11:30:04.973711 30323 net.cpp:380] conv5_6/sep -> conv5_6/sep
I0810 11:30:04.982033 30323 net.cpp:122] Setting up conv5_6/sep
I0810 11:30:04.982051 30323 net.cpp:129] Top shape: 32 1024 7 7 (1605632)
I0810 11:30:04.982055 30323 net.cpp:137] Memory required for data: 2530476544
I0810 11:30:04.982062 30323 layer_factory.hpp:77] Creating layer conv5_6/sep/bn
I0810 11:30:04.982069 30323 net.cpp:84] Creating Layer conv5_6/sep/bn
I0810 11:30:04.982074 30323 net.cpp:406] conv5_6/sep/bn <- conv5_6/sep
I0810 11:30:04.982080 30323 net.cpp:367] conv5_6/sep/bn -> conv5_6/sep (in-place)
I0810 11:30:04.982340 30323 net.cpp:122] Setting up conv5_6/sep/bn
I0810 11:30:04.982348 30323 net.cpp:129] Top shape: 32 1024 7 7 (1605632)
I0810 11:30:04.982352 30323 net.cpp:137] Memory required for data: 2536899072
I0810 11:30:04.982359 30323 layer_factory.hpp:77] Creating layer conv5_6/sep/scale
I0810 11:30:04.982367 30323 net.cpp:84] Creating Layer conv5_6/sep/scale
I0810 11:30:04.982370 30323 net.cpp:406] conv5_6/sep/scale <- conv5_6/sep
I0810 11:30:04.982378 30323 net.cpp:367] conv5_6/sep/scale -> conv5_6/sep (in-place)
I0810 11:30:04.982424 30323 layer_factory.hpp:77] Creating layer conv5_6/sep/scale
I0810 11:30:04.982569 30323 net.cpp:122] Setting up conv5_6/sep/scale
I0810 11:30:04.982578 30323 net.cpp:129] Top shape: 32 1024 7 7 (1605632)
I0810 11:30:04.982583 30323 net.cpp:137] Memory required for data: 2543321600
I0810 11:30:04.982589 30323 layer_factory.hpp:77] Creating layer relu5_6/sep
I0810 11:30:04.982594 30323 net.cpp:84] Creating Layer relu5_6/sep
I0810 11:30:04.982597 30323 net.cpp:406] relu5_6/sep <- conv5_6/sep
I0810 11:30:04.982602 30323 net.cpp:367] relu5_6/sep -> conv5_6/sep (in-place)
I0810 11:30:04.983423 30323 net.cpp:122] Setting up relu5_6/sep
I0810 11:30:04.983438 30323 net.cpp:129] Top shape: 32 1024 7 7 (1605632)
I0810 11:30:04.983440 30323 net.cpp:137] Memory required for data: 2549744128
I0810 11:30:04.983445 30323 layer_factory.hpp:77] Creating layer conv6/dw
I0810 11:30:04.983460 30323 net.cpp:84] Creating Layer conv6/dw
I0810 11:30:04.983466 30323 net.cpp:406] conv6/dw <- conv5_6/sep
I0810 11:30:04.983474 30323 net.cpp:380] conv6/dw -> conv6/dw
I0810 11:30:04.983819 30323 net.cpp:122] Setting up conv6/dw
I0810 11:30:04.983827 30323 net.cpp:129] Top shape: 32 1024 7 7 (1605632)
I0810 11:30:04.983830 30323 net.cpp:137] Memory required for data: 2556166656
I0810 11:30:04.983836 30323 layer_factory.hpp:77] Creating layer conv6/dw/bn
I0810 11:30:04.983842 30323 net.cpp:84] Creating Layer conv6/dw/bn
I0810 11:30:04.983846 30323 net.cpp:406] conv6/dw/bn <- conv6/dw
I0810 11:30:04.983853 30323 net.cpp:367] conv6/dw/bn -> conv6/dw (in-place)
I0810 11:30:04.984097 30323 net.cpp:122] Setting up conv6/dw/bn
I0810 11:30:04.984105 30323 net.cpp:129] Top shape: 32 1024 7 7 (1605632)
I0810 11:30:04.984108 30323 net.cpp:137] Memory required for data: 2562589184
I0810 11:30:04.984115 30323 layer_factory.hpp:77] Creating layer conv6/dw/scale
I0810 11:30:04.984122 30323 net.cpp:84] Creating Layer conv6/dw/scale
I0810 11:30:04.984127 30323 net.cpp:406] conv6/dw/scale <- conv6/dw
I0810 11:30:04.984131 30323 net.cpp:367] conv6/dw/scale -> conv6/dw (in-place)
I0810 11:30:04.984179 30323 layer_factory.hpp:77] Creating layer conv6/dw/scale
I0810 11:30:04.984323 30323 net.cpp:122] Setting up conv6/dw/scale
I0810 11:30:04.984330 30323 net.cpp:129] Top shape: 32 1024 7 7 (1605632)
I0810 11:30:04.984334 30323 net.cpp:137] Memory required for data: 2569011712
I0810 11:30:04.984340 30323 layer_factory.hpp:77] Creating layer relu6/dw
I0810 11:30:04.984347 30323 net.cpp:84] Creating Layer relu6/dw
I0810 11:30:04.984351 30323 net.cpp:406] relu6/dw <- conv6/dw
I0810 11:30:04.984355 30323 net.cpp:367] relu6/dw -> conv6/dw (in-place)
I0810 11:30:04.984975 30323 net.cpp:122] Setting up relu6/dw
I0810 11:30:04.984987 30323 net.cpp:129] Top shape: 32 1024 7 7 (1605632)
I0810 11:30:04.984990 30323 net.cpp:137] Memory required for data: 2575434240
I0810 11:30:04.984994 30323 layer_factory.hpp:77] Creating layer conv6/sep
I0810 11:30:04.985004 30323 net.cpp:84] Creating Layer conv6/sep
I0810 11:30:04.985008 30323 net.cpp:406] conv6/sep <- conv6/dw
I0810 11:30:04.985018 30323 net.cpp:380] conv6/sep -> conv6/sep
I0810 11:30:04.998854 30323 net.cpp:122] Setting up conv6/sep
I0810 11:30:04.998872 30323 net.cpp:129] Top shape: 32 1024 7 7 (1605632)
I0810 11:30:04.998878 30323 net.cpp:137] Memory required for data: 2581856768
I0810 11:30:04.998883 30323 layer_factory.hpp:77] Creating layer conv6/sep/bn
I0810 11:30:04.998890 30323 net.cpp:84] Creating Layer conv6/sep/bn
I0810 11:30:04.998894 30323 net.cpp:406] conv6/sep/bn <- conv6/sep
I0810 11:30:04.998903 30323 net.cpp:367] conv6/sep/bn -> conv6/sep (in-place)
I0810 11:30:04.999161 30323 net.cpp:122] Setting up conv6/sep/bn
I0810 11:30:04.999169 30323 net.cpp:129] Top shape: 32 1024 7 7 (1605632)
I0810 11:30:04.999173 30323 net.cpp:137] Memory required for data: 2588279296
I0810 11:30:04.999181 30323 layer_factory.hpp:77] Creating layer conv6/sep/scale
I0810 11:30:04.999188 30323 net.cpp:84] Creating Layer conv6/sep/scale
I0810 11:30:04.999192 30323 net.cpp:406] conv6/sep/scale <- conv6/sep
I0810 11:30:04.999198 30323 net.cpp:367] conv6/sep/scale -> conv6/sep (in-place)
I0810 11:30:04.999246 30323 layer_factory.hpp:77] Creating layer conv6/sep/scale
I0810 11:30:04.999399 30323 net.cpp:122] Setting up conv6/sep/scale
I0810 11:30:04.999406 30323 net.cpp:129] Top shape: 32 1024 7 7 (1605632)
I0810 11:30:04.999410 30323 net.cpp:137] Memory required for data: 2594701824
I0810 11:30:04.999415 30323 layer_factory.hpp:77] Creating layer relu6/sep
I0810 11:30:04.999423 30323 net.cpp:84] Creating Layer relu6/sep
I0810 11:30:04.999428 30323 net.cpp:406] relu6/sep <- conv6/sep
I0810 11:30:04.999433 30323 net.cpp:367] relu6/sep -> conv6/sep (in-place)
I0810 11:30:05.000248 30323 net.cpp:122] Setting up relu6/sep
I0810 11:30:05.000263 30323 net.cpp:129] Top shape: 32 1024 7 7 (1605632)
I0810 11:30:05.000267 30323 net.cpp:137] Memory required for data: 2601124352
I0810 11:30:05.000272 30323 layer_factory.hpp:77] Creating layer pool6
I0810 11:30:05.000284 30323 net.cpp:84] Creating Layer pool6
I0810 11:30:05.000289 30323 net.cpp:406] pool6 <- conv6/sep
I0810 11:30:05.000295 30323 net.cpp:380] pool6 -> pool6
I0810 11:30:05.000943 30323 net.cpp:122] Setting up pool6
I0810 11:30:05.000954 30323 net.cpp:129] Top shape: 32 1024 1 1 (32768)
I0810 11:30:05.000959 30323 net.cpp:137] Memory required for data: 2601255424
I0810 11:30:05.000963 30323 layer_factory.hpp:77] Creating layer myfc7
I0810 11:30:05.000973 30323 net.cpp:84] Creating Layer myfc7
I0810 11:30:05.000978 30323 net.cpp:406] myfc7 <- pool6
I0810 11:30:05.000988 30323 net.cpp:380] myfc7 -> myfc7
I0810 11:30:05.003691 30323 net.cpp:122] Setting up myfc7
I0810 11:30:05.003705 30323 net.cpp:129] Top shape: 32 6 1 1 (192)
I0810 11:30:05.003710 30323 net.cpp:137] Memory required for data: 2601256192
I0810 11:30:05.003717 30323 layer_factory.hpp:77] Creating layer myfc7_myfc7_0_split
I0810 11:30:05.003726 30323 net.cpp:84] Creating Layer myfc7_myfc7_0_split
I0810 11:30:05.003731 30323 net.cpp:406] myfc7_myfc7_0_split <- myfc7
I0810 11:30:05.003736 30323 net.cpp:380] myfc7_myfc7_0_split -> myfc7_myfc7_0_split_0
I0810 11:30:05.003746 30323 net.cpp:380] myfc7_myfc7_0_split -> myfc7_myfc7_0_split_1
I0810 11:30:05.003753 30323 net.cpp:380] myfc7_myfc7_0_split -> myfc7_myfc7_0_split_2
I0810 11:30:05.003820 30323 net.cpp:122] Setting up myfc7_myfc7_0_split
I0810 11:30:05.003826 30323 net.cpp:129] Top shape: 32 6 1 1 (192)
I0810 11:30:05.003831 30323 net.cpp:129] Top shape: 32 6 1 1 (192)
I0810 11:30:05.003834 30323 net.cpp:129] Top shape: 32 6 1 1 (192)
I0810 11:30:05.003839 30323 net.cpp:137] Memory required for data: 2601258496
I0810 11:30:05.003841 30323 layer_factory.hpp:77] Creating layer loss
I0810 11:30:05.003850 30323 net.cpp:84] Creating Layer loss
I0810 11:30:05.003854 30323 net.cpp:406] loss <- myfc7_myfc7_0_split_0
I0810 11:30:05.003859 30323 net.cpp:406] loss <- label_data_test_1_split_0
I0810 11:30:05.003865 30323 net.cpp:380] loss -> loss
…
